assigment_2/charlm_outputs/char_lm.pt (torch, 84044 bytes, 5 tensors)

embedding.weight f4 [41, 30]
00000000: 09b1 8cbf 14d9 593f 42ce 593f bc82 783f
00000010: f5fc b43f 4457 06c0 294f 873f 782d 6e3f
00000020: f260 f03e f777 443f fe6f 07be a123 343f
00000030: 3932 6ebe 4413 e53e 5df9 cabf bb0d 793f
00000040: 12e6 29be 5e7d d63f 7da1 443f 98df 35bf
00000050: 7d8f 95be 0dbd fdbe b2cc 513f 8637 6d3f
00000060: eb8e a23f ab1f 193f d0fa c53f b098 bfbf
00000070: 3ede 0e3e 112b 73bf ac91 27bf bedc f9be
00000080: e3e3 a83e 1519 813f 6391 403f b73a bebf
00000090: 9f08 08bf c61a c8bf 3a3e 2ebf 7912 0abf
000000a0: 6b7e a8be f560 8fbf 4902 5bbe 6d50 0940
000000b0: 9895 14bf 58a4 5e3b 373d b13e 3606 d8bd
000000c0: 40ac 95be 6ae2 38bf 8a74 d33f f7a4 26bf
000000d0: 18e9 e43e 98ef 0bbe 1b93 10bf 88c9 a63e
000000e0: 7a1c 06bf 444e fa3f 1517 073f 0d72 373f
000000f0: 0120 3abf 0750 16bf 9362 cabe 9429 6cbf
00000100: 07f3 3040 970a ce3d 6364 883d 00a6 2ebf
00000110: 8666 823e b3c3 3640 6ecc 4dbf 9b72 68be
00000120: 3417 0ec0 8aa6 40c0 f365 fdbf f499 4cbf
00000130: 088e 76bf 800f 7c3d d15b 45bf 963b fd3f
00000140: eb03 e3bf e887 eb3f 3968 1540 e87e 30bd
00000150: 3257 033f ae9d 823e 651e 4abf fe83 9940
00000160: 2f2b 00c0 1f91 293f c5b0 0cc0 3dd9 bf3f
00000170: c01d 9f3e 4d4f 9a3f 25ef 0740 d45d 0040
00000180: 645b 90bf 2d25 8ebf dac8 fe3f 8693 2f3d
00000190: bcc7 17bf 24b5 ac3e a6a4 b1bf 813f 95be
000001a0: 7171 a8bf e716 ecbf acf0 2cbf d527 a9be
000001b0: 2f5a 133e b8cb 163f 4960 8a3e 4f72 b03f
000001c0: 95cd 7340 75d3 e13e f3a9 bd3f b30f 8fbf
000001d0: 3fd1 76bf dbf5 da3f 16ed 51be 43bb da3f
000001e0: 68ba 9d3f 2c6a b0bf b40d a4bf 583d 96be
000001f0: 7233 df3d 9185 1c40 03c7 56be b855 9cbe
00000200: fba3 2ac0 e058 d83d 5b20 0c3f 8900 da3f
00000210: 6418 903f 762c c7bf 55ca d8be dc17 eebf
00000220: 1f82 933e b5f8 26bf 49fa 5fbf 47ff 26be
00000230: 7160 5c40 6b5a 35bf cd32 d1bf 78af 553e
00000240: 8dea 4cbf 6e40 7bbf a7d0 003f fa11 053e
00000250: 31d7 8e3e c1c3 9cbf 7b06 9a3f cd93 0340
00000260: e204 313f df96 9abf b1b4 0dbb e0ec 3d3f
00000270: a633 b3bd cff4 673f acf1 83be 17d1 ba3f
00000280: 75dd 103f 9624 58bf cd13 a23f c00f be3d
00000290: 10b6 673f 1d8f 6fbf c72d a2bf 57b4 5d3f
000002a0: 91bb 1540 8733 c8bf c6b7 bf3f b22c 66bf
000002b0: 7857 ea3e 3849 35bf 6288 203e e61b 043f
000002c0: 3b51 f1be 2529 313e 8950 c33f 654d 77bf
000002d0: 9faf 233f d5b1 7c3e 45f0 bb3f 9e1c 7cbe
000002e0: 0f81 c7be ac45 8f3e 2655 823e 9445 7cbf
000002f0: ddae 27be 5863 6bbf 54ea 6f3f 7fd2 1f40
00000300: 9507 dc3f 3248 3840 10fc 12bf 70d0 02bf
00000310: 7120 b83f c771 ddbf 9101 f2be b8b9 943f
00000320: ad47 453e 3bfe 6abf 8251 603e d7ee 843f
00000330: 2424 82bf 5121 2a3d a569 473f bc36 f23f
00000340: 7471 ef3f 9e4d 503e 6cb0 a3be 7e14 2d40
00000350: 14b4 2040 e3a6 8e3f ee56 5abe 03df 5f3b
00000360: e45c c43f 44bc 4ebf 4e47 7fbf 241f d8be
00000370: 1a3f 4740 7b63 08bf 5131 7940 f577 2ec0
00000380: 8eb5 1fbf fba8 21bf b921 1dc0 a5ac b6be
00000390: 5752 84bf 27ff 94be 3e3c 76be 5c06 19bf
000003a0: c3af 7040 6728 5b3f ddac 92c0 1599 04c0
000003b0: 7372 333f fa6c 3b40 4190 8b3f a6e6 7ac0
000003c0: dbd6 2340 6879 89be 9d77 88be 1cd1 783f
000003d0: 16db 17bd 8c6b 8a3f 7afe c9bf 96a2 46be
000003e0: 8001 843f d50a 223f 60a2 a3bf f172 803f
000003f0: f732 9cbc 4f93 42c0 128c e1bf 9b80 04be
-1.0991527 0.8509686 0.8508035 0.97074485 1.4139696 -2.0990763 1.0571033 0.9303813
0.46948963 0.7674555 -0.13226315 0.70366865 -0.23261346 0.4474126 -1.585735 0.97286576
-0.16591671 1.6757009 0.7680891 -0.710443 -0.29211035 -0.49558297 0.81952965 0.9266285
1.2699865 0.59813946 1.5467167 -1.4968472 0.13951966 -0.9498759 -0.6545665 -0.48801225
0.32986364 1.008578 0.7522184 -1.4861668 -0.53138155 -1.5633171 -0.680637 -0.5393444
-0.3290895 -1.1201464 -0.2138759 2.1455338 -0.5804076 0.0033972468 0.34617016 -0.1054806
-0.2923298 -0.7222048 1.651994 -0.65095466 0.44709086 -0.13665617 -0.56474465 0.3257563
-0.523872 1.9555135 0.52769595 0.716584 -0.72705084 -0.5871586 -0.3952833 -0.92250943
2.7648332 0.100606136 0.06659772 -0.68222046 0.25468844 2.8556945 -0.8039006 -0.22699969
-2.2201662 -3.0101647 -1.9796737 -0.79922414 -0.9631047 0.06153822 -0.77093226 1.9783809
-1.7735571 1.840085 2.3344862 -0.043089777 0.51304924 0.25510925 -0.7895263 4.7973623
-2.0026357 0.6623706 -2.1982892 1.4988171 0.31077385 1.2055451 2.1239712 2.0057268
-1.127789 -1.1105095 1.9905045 0.0428653 -0.59289145 0.3373195 -1.3878372 -0.29150012
-1.315962 -1.8444489 -0.67554736 -0.33038202 0.14389871 0.589046 0.27026585 1.3784884
3.8094227 0.4410664 1.4817489 -1.1176666 -0.96413034 1.7106279 -0.20500597 1.7088398
1.2322512 -1.3782401 -1.2816682 -0.29343677 0.10898484 2.4456522 -0.20974354 -0.30534148
-2.6662586 0.105638266 0.5473687 1.7031413 1.1257443 -1.5560443 -0.42341867 -1.8601031
0.28810212 -0.65223247 -0.8749128 -0.16308318 3.4433863 -0.7084109 -1.6343628 0.20867717
-0.80045396 -0.98145187 0.5031838 0.12995139 0.27898553 -1.2247239 1.2033228 2.055896
0.69148076 -1.2077292 -0.0021622593 0.7418957 -0.087500855 0.90607923 -0.25770319 1.4595059
0.56587917 -0.84430826 1.2662293 0.09280348 0.9051218 -0.9357775 -1.267022 0.866033
2.3395731 -1.5640725 1.4977958 -0.8991195 0.45769858 -0.7081485 0.15677026 0.5160507
-0.47132286 0.17300852 1.5258952 -0.9660247 0.6393985 0.24677213 1.46827 -0.24620292
-0.3896565 0.27982843 0.25455588 -0.9854367 -0.16375299 -0.9194846 0.9371693 2.4972227
1.7189814 2.8794065 -0.57415867 -0.510993 1.43849 -1.7300347 -0.4726682 1.1619177
0.19265623 -0.91794175 0.21906093 1.0385388 -1.0167279 0.04153568 0.77895576 1.8922954
1.8706498 0.20342109 -0.31970537 2.7043757 2.510991 1.114468 -0.21322224 0.0034160025
1.5340848 -0.8075602 -0.9971818 -0.42211258 3.1132264 -0.53276795 3.893635 -2.7260716
-0.62386405 -0.6314847 -2.4551833 -0.35678592 -1.0337628 -0.29100916 -0.24046418 -0.5977533
3.7607276 0.85608524 -4.5836015 -2.0718434 0.7009651 2.9285264 1.0903398 -3.9203277
2.5599887 -0.26850438 -0.26653758 0.97194076 -0.03707417 1.0814071 -1.5780785 -0.19397959
1.0312958 0.6329778 -1.2783928 1.0035077 -0.01906727 -3.040241 -1.7620871 -0.12939684

fc1.weight f4 [100, 150]
00000000: 35b9 ac3d 084c 4e3c 1ecc edbd 29cd c7bd
00000010: 0374 723e 83dc b3bc 26f0 e13c cbc1 36bd
00000020: 6e02 86bd 82a8 493d ae4f 573e c686 5bbe
00000030: 6c74 86be 74b7 123e f9d3 1cbe a81f 1dbd
00000040: 35b3 0c3e 917c a73d 526d 1fbc 1350 0cbe
00000050: 8dcc 13bd 1ce0 993d ab6a 2c3c 568e a63d
00000060: 0560 3b3e b713 5abe fddd ac3d b116 743e
00000070: 0cd0 b5be 2f39 ab3d 0ac4 7ebe 2ed1 59be
00000080: ed2a 43be c560 e53d 103e 5a3e 543a d23e
00000090: 1588 afbe 287d fbbd b8cb 03be 124c 273d
000000a0: 322e 20be a0e2 68be 864d 4fbd c418 7cbe
000000b0: f379 57be 7978 90be 5299 4c3e df5b c43d
000000c0: 4784 8cbe 642c ed3d 0181 673d 377b c23e
000000d0: 504a a13e 816d 36be 264b d0bd eea6 803e
000000e0: 12ed 39be 8614 e63e 8ac9 9a3e d448 f73d
000000f0: 5910 963d abbe 6d3e 71d7 01bf 00a4 00bf
00000100: e741 acbc 1dfe 67be 7f0c dbbd 8c84 043e
00000110: 1df5 543d f625 883e 5b91 8c3e 9625 e0be
00000120: 2221 0bbd c38c 833e 9178 0abf fe46 d7bd
00000130: 1a77 f4bd 1697 793e 7049 51be 03c1 5dbe
00000140: c983 673e abfb bbbe e2b5 b8bc bec2 9ebe
00000150: 6df2 853e c5af 0a3e 7068 f93d 4d0b fcbd
00000160: 5258 ab3e 6c45 e63d cc88 2bbe 4b9b 1c3f
00000170: 3ed2 eebe 166b 20bd 15b5 79bb b045 4e3f
00000180: ff46 173e ddf4 ab3d 317c abbd 061e 8d3c
00000190: 720d 0f3f dad6 393e 40af 08bf e3a0 c5bc
000001a0: 543c ea3c ca60 f63e bfdd afbe 7922 a33e
000001b0: 6f95 1b3f f9f1 033e e0e4 a73b 6d0d 953f
000001c0: e10c 663e 063b 383e f837 253e 6026 b13c
000001d0: 02e9 363f 40c6 013e 7030 29bf 35d9 d8bd
000001e0: 7801 37bf f1ae 133d 95e8 573e 65de 5f3e
000001f0: f0a8 393e bcbe d63e c643 eebd 0162 3bbe
00000200: 1fcc f1be 88c1 203f 6473 51bf f018 b7bc
00000210: afa7 f6be e610 bf3e 2333 53bf 8d45 a4bf
00000220: 4dbf 363f e604 ff3e 43e3 963e c3aa b9be
00000230: 4a60 82bd 71e8 aa3d b437 983f d521 7abf
00000240: 80b8 eb3d b082 45bf e642 a7be eeb6 143f
00000250: 4a6f f3bd d28d d6be 917a 023d f2ef f1bd
00000260: d01f 163e 510a 953e 39c7 333e c976 b1bd
00000270: 0eb9 09be 16a8 2c3c efbc d43d 4091 cf3d
00000280: 7a3a 1bbe 5200 38be 5fac 9cbe 2123 073e
00000290: e056 40be 2b7a b9bd df41 3abe e07a 50bc
000002a0: ad3f 1fbe 53ae da3d bc47 103e b00e d5bb
000002b0: 311e 073d 8122 dabe 4174 f3bd 09da 68bd
000002c0: 3bd7 123e 43f2 0d3b 3740 a2be a2da 953d
000002d0: 968a f6ba 072a 6dbe 11a3 873e 4bfd cebc
000002e0: 2e65 76bd 8933 5f3e bb2e 56bb 7fb7 8b3d
000002f0: b8ab 22bd 3326 d23d 47e0 1d3c 512f 4d3d
00000300: 1029 c3bd 8c23 8b3e c288 4f3e 9045 fc3d
00000310: 48b0 583e 0519 de3d c6a3 4f3e f9cf 1d3d
00000320: 7db3 993e 87e4 9a3e 0152 26be b4b4 b03d
00000330: 516b 2abd 0939 a1bd f17d d13e 1e52 13bd
00000340: 22de 0a3d 9ef4 b0be 5232 9d3e 6b0b cd3e
00000350: 2fc9 94be 94b6 ae3e f971 d23d 0505 61be
00000360: 24f7 39be 0c9f 893c 4456 a23d 488a a63e
00000370: c810 76bd a110 793d 440b f3be ff32 e93d
00000380: 97d1 ccbe b620 c5be 9971 84bd 7503 de3e
00000390: d33f 11be 0fbd eebb 64e0 db3e 67bf f93c
000003a0: 2afb aabe 0834 a6be baf6 bc3d 75f1 15bf
000003b0: 1ea3 903e c673 15bd 34ed 7f3d 45f2 dabd
000003c0: cca8 d03d ab2b 1cbf bed8 b13e 592e 023d
000003d0: d55a 553e 81a4 06be 8fa4 36bf 807b 03bf
000003e0: 2c26 4c3f daaa 593e a303 e63e 4465 003e
000003f0: 08bb 303e 0b9e b73d 1930 21bf 845f a7be
0.08433763 0.012591369 -0.11611198 -0.09755928 0.23677067 -0.021955734 0.027580332 -0.04461841
-0.06543432 0.049232967 0.21026489 -0.2143813 -0.26260698 0.14327794 -0.15315236 -0.038360268
0.13740237 0.08178056 -0.009730654 -0.13702421 -0.036083747 0.075134486 0.0105234785 0.08132617
0.18298347 -0.21296583 0.084407784 0.23836781 -0.3551029 0.08360516 -0.2487947 -0.21271202
-0.19059344 0.11200098 0.21312737 0.41060126 -0.3428351 -0.12279731 -0.12870681 0.04084403
-0.15642622 -0.227427 -0.05061104 -0.24618822 -0.21042614 -0.28216913 0.19980362 0.095878355
-0.2744467 0.115807325 0.056519512 0.3798463 0.31502008 -0.1781521 -0.101705834 0.25127357
-0.18156841 0.44937533 0.30231887 0.12074438 0.07327337 0.23217265 -0.5071936 -0.50250244
-0.021027518 -0.2265553 -0.10695743 0.12941188 0.05199157 0.26591462 0.27454647 -0.43778676
-0.033967145 0.2569333 -0.5409022 -0.105115876 -0.11936779 0.24374041 -0.2043817 -0.2165566
0.22608866 -0.36715445 -0.022547666 -0.31007951 0.2616152 0.13543613 0.12178123 -0.12306843
0.3346582 0.1124371 -0.16751403 0.6117446 -0.46644777 -0.039164625 -0.0038102318 0.80575085
0.14773177 0.08396313 -0.08373297 0.01722623 0.5587989 0.18148366 -0.5339241 -0.024124568
0.02859322 0.4812072 -0.34348866 0.31862238 0.6077489 0.12885274 0.0051237196 1.1644722
0.2246585 0.17991266 0.16134632 0.021624744 0.7144929 0.12673283 -0.66089535 -0.10588304
-0.71486616 0.03605551 0.21084817 0.2186218 0.18130851 0.41942394 -0.116340205 -0.18299104
-0.47226045 0.62795305 -0.818167 -0.022350758 -0.48174807 0.3731758 -0.82499903 -1.2833725
0.7138565 0.49808425 0.29470262 -0.36263093 -0.06366022 0.08345116 1.1891999 -0.97707874
0.115098 -0.7715254 -0.32668227 0.5809163 -0.11886461 -0.41905075 0.03185517 -0.11813344
0.14660573 0.29109433 0.17556466 -0.086652346 -0.13449499 0.010538122 0.10387599 0.10135126
-0.15159026 -0.17968872 -0.3060026 0.13196994 -0.1878314 -0.09056505 -0.1818919 -0.012724608
-0.15551634 0.10677781 0.14089864 -0.006501995 0.032987777 -0.4260445 -0.11887408 -0.05684856
0.14339916 0.0021659292 -0.31689617 0.073170915 -0.0018809612 -0.23160563 0.26491597 -0.025267264
-0.060155086 0.21797003 -0.0032681662 0.068221085 -0.039714545 0.10261192 0.009635991 0.050093953
-0.095293164 0.27175558 0.20267013 0.123179555 0.21160996 0.10844616 0.20277318 0.038528416
0.3001975 0.30252478 -0.1624222 0.086282164 -0.04160625 -0.07872207 0.40916398 -0.035966985
0.03390325 -0.34561628 0.30702454 0.40047774 -0.2905974 0.3412367 0.10275645 -0.21974571
-0.18160683 0.016799472 0.0792661 0.32527375 -0.060074598 0.060806874 -0.47469532 0.1138668
-0.40003654 -0.3850152 -0.064669795 0.43362013 -0.14184503 -0.007285721 0.42944634 0.030486776
-0.33394748 -0.32461572 0.09226747 -0.5857156 0.2824945 -0.036487363 0.062482074 -0.106907405
0.101884454 -0.6100413 0.34735674 0.03178248 0.20835431 -0.13148691 -0.71344846 -0.5136032
0.79745746 0.21256581 0.4492465 0.1253863 0.17258847 0.08965691 -0.62964016 -0.3269006

fc1.bias f4 [100]
00000000: 290e 93bd d830 15bf d2c5 a53e 569f 0cbf
00000010: 8a39 40bf dd1b 223f 1266 293e 892e d9bd
00000020: 78d0 283f 2b96 16bf 5d8f d4be 67c6 8a3e
00000030: 3407 81be 61d9 403e 4d87 30be 7e48 6b3d
00000040: 1f46 ee3d 92a4 343f 1f1c 433c ce65 a13e
00000050: 3919 2dbe 2940 18be 2089 683e 0626 bebe
00000060: 1a06 4b3e bd5c 23bf 9e52 7b3e 8068 93be
00000070: ea88 e13d 2d99 1a3f 7c2b 083f 595a 493f
00000080: 549a e63d 6d6b 3f3f 54dc e73e 4235 af3d
00000090: afe7 01bf ecca 0e3f 56b3 4ebd 0413 ecbe
000000a0: be9f 6abe bea3 283f 4315 c3be 5426 95bd
000000b0: a998 be3e ac28 7c3e 7412 74be 3032 63be
000000c0: 860b 11bf 9eba 323d 9daa c8be a09f 483f
000000d0: 8e05 933e fe2c f0be 6b1a 233f 8c9e 393e
000000e0: 30ef 043e 4b5f 9e3e 26a8 1abe 682b 10bf
000000f0: e90e c13e 0346 0c3e 3a70 143e 9ba1 b5bd
00000100: cdbe 033f cd1b 4c3e f20f d03e 5b49 a3bc
00000110: 5cbd 31bd ddc9 c13e 2247 efbe a1b3 093f
00000120: 7617 9ebd dce6 8fba 2002 d13e a835 e2be
00000130: 73df 91be 4977 b33e 8427 04bd 0584 803e
00000140: 6fcc 163f c5cb c6be 7e24 f6bd a01c c93d
00000150: 4020 9a3e 15ab 1b3f 82ac 343f 6f27 d83e
00000160: d41a 75be e33b 0b3f d671 863d 26a0 293e
00000170: af1a 153e 4bc9 e1be 96ab 823e 815c a4be
00000180: 66c1 963e cf1d 5dbe a10b c5be 16ae 813e
-0.07180435 -0.58277655 0.32377487 -0.5493063 -0.750878 0.63323766 0.16542843 -0.10604579
0.659431 -0.5882289 -0.41515628 0.27104494 -0.25200808 0.18832923 -0.17239113 0.05744218
0.11634468 0.70563614 0.01190856 0.31522983 -0.16904153 -0.14868225 0.22708559 -0.37138385
0.19826546 -0.6381338 0.24543235 -0.28790665 0.110124424 0.6038998 0.5319135 0.78653485
0.112599045 0.74773294 0.45285285 0.0855508 -0.50744146 0.55778384 -0.050463997 -0.46108258
-0.229125 0.6587485 -0.3810216 -0.07282701 0.37225845 0.2462489 -0.23835164 -0.22187114
-0.5665821 0.043635003 -0.39192668 0.7836857 0.28715175 -0.46909326 0.63712186 0.18126887
0.12981868 0.30932078 -0.15103206 -0.5631623 0.37706688 0.13698582 0.14495936 -0.088687144
0.51463014 0.1993248 0.40637165 -0.01993244 -0.043393478 0.37849322 -0.46733958 0.53789717
-0.077193186 -0.0010978836 0.40821934 -0.4418156 -0.2849079 0.35051945 -0.032264248 0.25100723
0.5890569 -0.3882734 -0.12018679 0.09819913 0.3010273 0.60807925 0.70575726 0.42217585
-0.23936015 0.54388255 0.06564681 0.16564998 0.1456096 -0.44098887 0.25521535 -0.32101825
0.29444426 -0.21593402 -0.38485435 0.2532813

fc2.weight f4 [41, 100]
00000000: 77c7 8bbd 4ca4 5e3f 5171 82bf cd8c 463f
00000010: bd5a 263f 1dc0 9cbf 36bf 973e 63cc 053f
00000020: 086e 2cbf 02e2 e03e 9291 073f d520 a5be
00000030: 816c 113e b52d b4be f3ea 103f 104d 72bf
00000040: 26e2 403e 2248 3ebf 8a32 703e 0aee a2bd
00000050: 080e 0f3e c50d 8fbd 0ef7 f9be 68ed 013f
00000060: a9b9 2bbf 709e 5c3f f53c 38bf be89 863f
00000070: 2186 0abf 654e 00be c8a1 28bf 30e2 40bf
00000080: 3078 1cbf a061 6abf 54f5 40bf b334 103e
00000090: 7a74 3e3f 7d9a 78bf 212f 093f 678c 483f
000000a0: 9ead 0d3f 7c6a 84bf ae28 063f 6c4c 153f
000000b0: 5c10 5bbf 12db ab3e 8ba9 3a3f e3ba c33e
000000c0: 63ef 323f 3cf2 3abe 9003 793f fe85 6ebf
000000d0: a40e 0dbf 7c90 993f dbfe 5cbf 9d22 32bd
000000e0: cec9 e0be ec52 16bf 8425 a83d 83ca 183f
000000f0: f1f4 20bf 5471 09bf 6539 12be 4f13 f9be
00000100: 2c5a 64bf 2646 3bbf 143b 6cbf 7265 2ebf
00000110: bef9 0ebf c59f c0be a59c 1c3f d181 83bf
00000120: ab3a 09be af55 b33e 16e0 11bf 8fff 283f
00000130: b9b8 963e 367a c1be d9c3 1c3e 5c01 c1be
00000140: 6dd2 4abf 89c8 7d3f d46f ac3e e66e dbbd
00000150: 1b9d 44be 6106 63bf eec6 a8bf 6a5b 74bf
00000160: de4d c43e e318 81bf c6af c9bc 1d6f 3dbd
00000170: eafc ee3d 1c19 373f 08c9 07bf 7e86 4f3d
00000180: 897a d5be e785 233e f748 493f dddf 44bf
00000190: d34a 83bd da25 463f 8eb0 63bf 7622 443f
000001a0: 43b6 223f a38f 91bf 0a3b 953e a847 133f
000001b0: 30ed 14bf 1aec e83e b465 083f 72a4 a0be
000001c0: 9c32 723e 414b 90be 0c7c 203f d6ed 75bf
000001d0: 34f0 073e bc39 35bf 0016 973e ffc5 c9bd
000001e0: fe00 fb3d 95c6 07be e208 ebbe 4caf ef3e
000001f0: 0116 28bf 1205 793f af6a 4fbf 0019 853f
00000200: c5d2 19bf c7d6 0fbe 345a 22bf d9b9 4ebf
00000210: 8644 0cbf 1f4b 3fbf b6d9 30bf 1ed4 353e
00000220: e334 2e3f 3f97 74bf d1c9 053f 8aa1 543f
00000230: a4e7 1b3f f2f2 8cbf a631 1b3f f522 073f
00000240: a7c2 71bf d161 813e 13c2 573f c72d cd3e
00000250: 8739 363f 80d4 34be 8089 783f 08cb 70bf
00000260: 6ad8 e7be 3c4c 9f3f a340 5fbf ecc4 1dbd
00000270: 6632 a9be c641 2bbf 99a1 be3d 79bf 083f
00000280: 9349 24bf 4ce1 03bf d29e 21be 3398 c8be
00000290: 4aab 4cbf d4d6 26bf c485 60bf de93 29bf
000002a0: 0db9 25bf d691 b8be e8bb f93e 660c 85bf
000002b0: d8b8 debd 01f7 d13e 638b 26bf 4071 1d3f
000002c0: 30c9 773e 4d44 e6be 1448 463e 4ce7 aabe
000002d0: ac0d 50bf 1d71 6d3f 71a3 cb3e 968e 0bbe
000002e0: b554 82be b8a0 4bbf 31b6 95bf 0d81 5bbf
000002f0: 36f7 c63e 0e45 80bf 4403 143d 96be 56bd
00000300: 7525 0d3e 50a5 3b3f 4a81 21bf 8354 c73c
00000310: 5369 babe 2d0d 513e 83ec 573f 0f1b 4ebf
00000320: ed72 a1be d470 8dbd 7e14 96be 3532 06be
00000330: 0edc a1be 78d2 a53e d695 2cbf 8bc0 ca3e
00000340: 8428 aebe 4301 d0be d377 f23d f4de ee3e
00000350: 9f38 783c a2ac 50be 884b ccbe 4762 933e
00000360: cc4c dd3e ae76 d43c 25b3 5dbe 8f59 9f3e
00000370: cb85 fbbe 6fa8 66be 25ba 02bf 20d9 283f
00000380: 1036 983e c35d 703c 5555 2bbf b945 3f3d
00000390: f551 bfbd b27e 87be 6047 8a3e 9971 3bbe
000003a0: 4c24 00bf 6e3e 923e d2ed d6bd da45 04be
000003b0: ced8 b53e fbec 303e 968c 9ebe be1c 00bf
000003c0: d364 8cbe fbfe aa3e 2a51 213f 4c7c 283e
000003d0: 6f5a fc3e 59e9 3f3d 6663 78bc cbb6 d5be
000003e0: c2a3 f63e 4e62 563f 55f8 b1be f3dc 0abe
000003f0: f3ce 263e 0231 933e ec37 7f3e 3284 2fbe
-0.06825154 0.8696945 -1.0190831 0.77558595 0.64982206 -1.2246128 0.2963807 0.52264994
-0.67355394 0.4392243 0.529565 -0.3225161 0.14201547 -0.35191122 0.56608504 -0.9464884
0.18836269 -0.74328816 0.23456779 -0.079555586 0.13970196 -0.06985048 -0.488213 0.5075288
-0.6708017 0.86179256 -0.71968013 1.0510786 -0.54110914 -0.12529905 -0.6587186 -0.75345135
-0.6112089 -0.91555214 -0.7537434 0.14082603 0.7439648 -0.9711073 0.5358754 0.78339237
0.55343044 -1.0344996 0.5240582 0.58319736 -0.8557184 0.33565575 0.7291495 0.3822852
0.69896525 -0.18256468 0.9727106 -0.93173206 -0.55100465 1.1997218 -0.8632638 -0.04349004
-0.43903965 -0.5872028 0.082102805 0.5968401 -0.6287375 -0.5368855 -0.14279707 -0.48647544
-0.8920009 -0.73153913 -0.92277646 -0.68123543 -0.55849826 -0.37621894 0.6117652 -1.0273992
-0.13401286 0.3502631 -0.56982553 0.6601495 0.29437807 -0.37788552 0.15309085 -0.3769635
-0.79227334 0.9913412 0.33679068 -0.107145116 -0.19200556 -0.8868161 -1.3185709 -0.95451987
0.38340658 -1.008572 -0.024619948 -0.046248544 0.11669333 0.7152269 -0.53041124 0.05066537
-0.4169505 0.15969048 0.7862696 -0.7690409 -0.06410756 0.77401507 -0.88941276 0.76615083
0.6355936 -1.137196 0.29146606 0.57531214 -0.5817442 0.4549263 0.53280187 -0.31375462
0.23652118 -0.28182414 0.6268928 -0.96066034 0.13275224 -0.7079122 0.29508972 -0.09852218
0.122560486 -0.13259347 -0.45905215 0.46813428 -0.65658575 0.9727336 -0.8102216 1.0398254
-0.60087234 -0.14046775 -0.6341889 -0.8075233 -0.5479206 -0.74724 -0.690822 0.17756698
0.6804945 -0.95543283 0.5226107 0.8305899 0.6090033 -1.1011641 0.6062263 0.52787715
-0.9443764 0.2526994 0.8428051 0.40073988 0.7118153 -0.17659187 0.9708481 -0.940598
-0.45282298 1.244514 -0.87208 -0.038517877 -0.33046263 -0.6689724 0.09308166 0.53417164
-0.64174765 -0.5151565 -0.15783241 -0.3917862 -0.79948866 -0.6517155 -0.8770411 -0.6624125
-0.6473549 -0.36048764 0.48776174 -1.0394409 -0.108751 0.41008762 -0.6505644 0.6150093
0.2419784 -0.44973984 0.19363433 -0.3337959 -0.8127086 0.9275072 0.39773133 -0.13628611
-0.2545525 -0.7954211 -1.1696225 -0.8574379 0.38860482 -1.0021074 0.036135927 -0.05242785
0.1378382 0.7329912 -0.63087904 0.02433229 -0.3640848 0.20415182 0.84345263 -0.8051004
-0.31532994 -0.06906286 -0.2931251 -0.1310509 -0.316132 0.32387137 -0.6741613 0.39600024
-0.34015286 -0.40625963 0.11839261 0.46654475 0.015150218 -0.20378354 -0.39901376 0.28785917
0.43222654 0.025935497 -0.2165037 0.31123015 -0.49125513 -0.2252519 -0.51065284 0.65956306
0.29728746 0.014670792 -0.6692708 0.046697352 -0.09341804 -0.26463848 0.2700758 -0.18305053
-0.50055385 0.28563255 -0.104945794 -0.12917271 0.3551697 0.17277901 -0.30966634 -0.5004386
-0.27420673 0.3339766 0.6301447 0.16453665 0.49287745 0.046853397 -0.015160417 -0.41741022
0.48171812 0.8374375 -0.34759775 -0.13560848 0.16289882 0.28748327 0.24923676 -0.17140272

fc2.bias f4 [41]
00000000: ef1c 85bf 27a1 9bbf 2436 b0be 9b6f 803e
00000010: 135c a6be 96a0 b2be 5539 0bbf 8144 fbbd
00000020: 1887 d53e 9470 27bf ef8b debe 10cc e6be
00000030: 9eeb 4dbd 9a19 13bf 36d5 0cbf e51d 993e
00000040: 052c 87bd 3e62 85be 07a6 2abe 9db3 723e
00000050: 5a49 733d 0961 aebe e5c1 ba3d 0755 ed3e
00000060: db6c 47bf bf6e a7be 2073 713e 2937 7b3e
00000070: 7f6f cebd 70e6 5ebd ce50 663c 4f31 04bf
00000080: d94f 27be cad0 b33e af60 eabe f32b 65be
00000090: 0acd 5abe 0469 0b3e d274 62bf ee4f a6bd
000000a0: 5adf 8bbf
-1.0399455 -1.2158555 -0.34416306 0.25085148 -0.32492122 -0.34888142 -0.54384357 -0.122689255
0.4170463 -0.65406156 -0.43466136 -0.45077562 -0.05027353 -0.5746094 -0.55012834 0.2990562
-0.06600193 -0.26051515 -0.16664897 0.2370133 0.059396125 -0.34058407 0.09119014 0.46353933
-0.77900475 -0.3270168 0.23579073 0.2453276 -0.1007986 -0.05441898 0.014057351 -0.5163774
-0.16339053 0.3512023 -0.4577689 -0.22380047 -0.21367279 0.13614279 -0.88459504 -0.08120714
-1.0927536
