assigment_2/charlm_outputs/char_lm.pt (torch, 360396 bytes, 5 tensors)

embedding.weight f4 [67, 40]
000000 8f f0 88 81 96 07 7f 00 ef af ba 80 14 ae 11 00
       -5.0303695e-38 1.166583e-38 -1.7144515e-38 1.623651e-39
000010 5e 75 a6 81 98 c1 f4 80 a4 28 17 81 8a 12 43 81
       -6.1147183e-38 -2.247731e-38 -2.7763478e-38 -3.5829145e-38
000020 84 95 c1 00 48 72 15 80 92 73 10 81 d2 48 04 80
       1.7777887e-38 -1.969542e-39 -2.653154e-38 -3.93465e-40
000030 08 1f a8 81 dd 1e ab 00 18 bd 80 81 63 b5 43 80
       -6.175798e-38 1.5714942e-38 -4.729111e-38 -6.218048e-39
000040 76 41 40 01 19 eb 47 00 ce fa 4b 01 7a 22 a6 81
       3.5311796e-38 6.604657e-39 3.7465155e-38 -6.102824e-38
000050 82 dc 05 01 8d b7 2c 01 06 2b 72 00 fe bc 73 00
       2.4586449e-38 3.1723102e-38 1.048468e-38 1.062888e-38
000060 2a f1 32 80 26 16 9c 80 f3 5c df 00 80 4f aa 00
       -4.678288e-39 -1.4334283e-38 2.051266e-38 1.5640554e-38
000070 a5 89 f2 80 2c 94 53 00 52 99 aa 00 48 f8 8f 81
       -2.2273568e-38 7.6755e-39 1.5667035e-38 -5.288617e-38
000080 52 3c 01 01 48 c0 b3 00 7f 5e 95 80 b0 c4 6b 81
       2.3736836e-38 1.6507531e-38 -1.3717388e-38 -4.33038e-38
000090 79 56 80 80 aa 06 20 81 6e 84 38 00 c7 16 a6 80
       -1.1785964e-38 -2.939214e-38 5.190295e-39 -1.5252863e-38
0000a0 fc 24 06 81 9a 7c c5 80 1a 96 b2 01 eb e5 8a 01
       -2.4638448e-38 -1.8136291e-38 6.560226e-38 5.102311e-38
0000b0 fc 1b f4 80 2a b0 01 81 66 22 61 81 71 d6 c2 80
       -2.24179e-38 -2.381995e-38 -4.1350653e-38 -1.7893013e-38
0000c0 1c 8f b7 00 7e 9d 6e 00 16 c6 a2 81 32 c8 9d 80
       1.6857234e-38 1.0158402e-38 -5.979364e-38 -1.448999e-38
0000d0 04 4e a5 00 c2 68 0a 00 7e 58 c6 00 49 70 73 80
       1.5180844e-38 9.55935e-40 1.8215173e-38 -1.0601362e-38
0000e0 66 d1 cf 00 5f 07 f2 80 74 42 f5 80 f0 98 25 00
       1.9085066e-38 -2.2226834e-38 -2.2523535e-38 3.452777e-39
0000f0 9c da 59 80 00 c3 33 80 98 ef 1d 01 e3 2b 06 01
       -8.251781e-39 -4.753563e-39 2.9008246e-38 2.46434e-38
000100 0d a6 cd 00 b1 42 11 00 86 bc b4 00 67 92 b8 01
       1.8885845e-38 1.585128e-39 1.6598019e-38 6.7801e-38
000110 06 41 45 81 ef fc 7e 00 2d 49 c5 80 d0 c0 0a 01
       -3.6229838e-38 1.1662008e-38 -1.8117843e-38 2.5484933e-38
000120 4e 98 12 80 ea 91 b5 00 e4 bb 0a 01 91 75 0c 80
       -1.707676e-39 1.6674569e-38 2.5481402e-38 -1.144201e-39
000130 34 f4 a9 81 7f bb ba 80 bf 2e 1c 00 93 90 ac 00
       -6.243121e-38 -1.7148663e-38 2.588163e-39 1.5847569e-38
000140 ef 7f a9 3e 1b d3 b6 be 37 c6 74 3e aa 92 50 bf
       0.33105418 -0.35707936 0.23903738 -0.8147379
000150 cd 55 19 bf e5 c1 81 bf 5e d5 24 be 56 f4 a4 bf
       -0.59896547 -1.0137297 -0.16097018 -1.2887065
000160 06 32 8a bf 25 7f cc 3d d6 85 d8 3e f3 c2 8b 3f
       -1.0796516 0.099851884 0.4228961 1.0918869
000170 8d 6e a6 be 21 7d 8a be 4e 32 be 3e 98 f2 59 3e
       -0.3250622 -0.2704859 0.37147754 0.21283948
000180 72 0b c8 be 9d 12 ad be 0b 05 ce 3c 95 71 33 3f
       -0.39071232 -0.33803263 0.025148889 0.7009519
000190 42 61 26 3b 1f 2d b5 be 30 fc a1 3e 16 f5 6c bf
       0.002538756 -0.35385987 0.31637716 -0.9256147
0001a0 25 69 c4 bd d6 4b 1f be b8 54 95 bf f2 06 fd be
       -0.09590367 -0.15556273 -1.1666479 -0.4941936
0001b0 9d c4 c3 3f 31 3f fb be 41 5d 47 bf 29 ca a8 3e
       1.5294377 -0.4907165 -0.7787667 0.32966736
0001c0 58 4b 07 be ec fd 78 bf 8e 64 6a 3e 03 ec 32 3f
       -0.13212335 -0.97262454 0.22889921 0.69891375
0001d0 d8 ce 1e bf d7 9c 67 be 20 9a 3e 3f 6e 3e cb be
       -0.6203437 -0.22618423 0.74453926 -0.39696068
0001e0 53 49 04 3e d8 ac 64 be 5a 42 94 bc 31 ef 6f be
       0.12918596 -0.2233156 -0.018098045 -0.23431088
0001f0 f3 bb 0e be e5 a2 2c 3d cd 92 08 be b0 ae c3 be
       -0.13938884 0.042147536 -0.1333725 -0.38219213
000200 cb 12 74 bf 6b 71 41 be d4 08 a9 3f 4d d2 cc bd
       -0.95341176 -0.18890922 1.3205819 -0.10001049
000210 3e e2 94 bb d2 87 4c bd 00 28 ab be 9a c4 48 3f
       -0.0045435717 -0.049934216 -0.33428955 0.7842499
000220 c3 02 c7 be b7 5b 0a 3d 71 db 2f 3f 82 39 84 be
       -0.38869295 0.033778872 0.68694216 -0.25825125
000230 9f 79 c6 be ba 57 18 3e c5 31 67 be 02 55 a1 3d
       -0.38764665 0.14877215 -0.2257758 0.07877542
000240 5e d4 be be 91 f6 bb 3d b2 e3 a6 be bc 47 e0 bd
       -0.37271398 0.09177888 -0.32595593 -0.10951182
000250 cf 7c 3c 3f 96 df 33 be 48 4f a7 bf 45 b5 91 3e
       0.7362794 -0.1756576 -1.307107 0.2845861
000260 d4 1a 8b 3e 2f 42 ac 3d d7 f1 4d be b6 ea 5c bf
       0.27168906 0.08411061 -0.20111786 -0.8629564
000270 7d 78 b7 3e 22 95 46 be 50 5b 66 3f 96 dc 94 bb
       0.35834113 -0.19392827 0.8998308 -0.0045428975
000280 76 fd cc 3d 05 c3 28 bf 3f 22 02 be 9c 8c f5 be
       0.10009281 -0.65922576 -0.12708376 -0.4795884
000290 25 30 6a 3e 2f a9 4f bf f4 2a 61 3e f0 5b ab 3c
       0.22869928 -0.8111753 0.21989042 0.020917863
0002a0 9f 32 96 be 6a 3e 18 bf 1c b6 86 bf 41 a4 16 be
       -0.29335496 -0.59470236 -1.0524325 -0.14711095
0002b0 a4 40 74 3e 38 72 bd bf 26 e1 c4 3e 6d 72 98 3e
       0.23852783 -1.4800482 0.38453025 0.297748
0002c0 83 50 a1 3f f6 2d 4a be 16 d0 50 be f7 38 03 3f
       1.2602695 -0.19744095 -0.20391878 0.51258796
0002d0 14 81 b8 be 00 77 2b bf 48 9f f9 be c9 a0 f9 bc
       -0.3603598 -0.66978455 -0.48754334 -0.030472176
0002e0 c4 c6 9e 3c a4 a9 12 3e 6d f0 04 3f 58 0b 4c be
       0.019381888 0.14322525 0.5192936 -0.19926202
0002f0 c5 04 60 3e de 26 e8 3e 73 03 a3 3e a8 07 06 be
       0.2187682 0.45342153 0.3183857 -0.13088858
000300 52 0f e5 bd ba 31 0a 3f 01 44 81 3f a1 97 2f 3f
       -0.11184563 0.53982127 1.0098878 0.6859074
000310 2c f7 0d bf 11 5e 2d 3f 40 53 20 3f 2e 68 b8 3e
       -0.5545528 0.6772166 0.6262703 0.36016983
000320 e3 2d a6 3a bb b4 3d 3c ff cb c9 3c a3 bb e3 bc
       0.001267847 0.011578734 0.024633406 -0.027799433
000330 34 38 2d 3c a8 e8 ef 3a a7 19 b7 3c 07 29 9b 3d
       0.010572482 0.001830359 0.0223511 0.07576185
000340 bb fc b5 bb 91 17 36 bd 74 dd f3 3c a3 64 6f 3c
       -0.0055538095 -0.04445607 0.029768683 0.014611396
000350 c4 f0 b9 bd 99 62 d4 3c 21 5d 22 bc f7 73 48 3d
       -0.090791255 0.025925921 -0.009909899 0.048938718
000360 d0 d8 1b 3d 87 1c 19 3c f8 5e a5 bd 6e 8d f8 bc
       0.038048565 0.00934518 -0.080747545 -0.030340876
000370 47 b7 3a bc c5 1d e5 3b 36 d2 c0 3a 7e 0d 41 bc
       -0.011396236 0.006992074 0.0014711085 -0.011783002
000380 46 3e a9 bc 8c 0b 54 3d eb 24 2f 3d 3f 94 00 bd
       -0.020659577 0.051768824 0.042759817 -0.03139138
000390 eb ac 76 bc 95 db 9a 3c 73 99 82 bb 89 9c d9 3c
       -0.015055875 0.018903533 -0.0039855777 0.0265639
0003a0 36 6e d8 3b c3 6f 88 3d 21 fa 2f 3d 5a 77 bc bc
       0.006604935 0.06661942 0.04296315 -0.02300613
0003b0 c2 ac 67 3d db 1d 0a bb 5f c3 15 bd 93 d6 1f 3d
       0.05656124 -0.0021074924 -0.036563274 0.039022993
0003c0 97 e0 44 bd f2 db b8 bd ad 48 36 3d ea 76 45 bc
       -0.048065748 -0.09026326 0.044502903 -0.012052277
0003d0 56 c1 1c 3d 76 5f 24 bd fa 75 02 3d 08 8a 08 3e
       0.038270317 -0.0401301 0.031850792 0.13333905
0003e0 3c be 36 be 31 e7 ee bc 75 d9 21 3d dc 30 c2 bc
       -0.17846006 -0.029162975 0.039514024 -0.023704939
0003f0 c0 bc 1a be 89 7a 57 3e 79 e7 e8 bb 5c 13 dd bc
       -0.15111065 0.21042837 -0.007107672 -0.02698677

fc1.weight f4 [100, 800]
000000 de 4f c4 bd 7c f1 35 3d 10 80 eb 3d 4f 7d e1 bd
       -0.09585546 0.04441975 0.11499035 -0.11010229
000010 c3 a5 98 3d 15 c6 02 bc 57 57 96 3d cc dc ad 3d
       0.074534915 -0.007981797 0.073408775 0.08489379
000020 12 69 9e bd 53 9f 51 bd 88 d8 e7 39 f9 be d7 3c
       -0.07734884 -0.051177334 0.00044221082 0.02633618
000030 d1 d0 c5 bd 87 04 5d 3d 7e c8 23 bc ad 1a 02 3d
       -0.09658969 0.053959396 -0.0099965315 0.03176372
000040 5c 65 ba bb 29 90 c7 3c 75 47 bb bc 7d 69 f2 bd
       -0.0056883525 0.024360733 -0.022861222 -0.118365265
000050 47 da 9e ba 53 41 10 bd b8 ba bb bd a5 3e 24 be
       -0.0012119495 -0.035218548 -0.09166473 -0.16039522
000060 82 2f 4d 3b 23 84 35 3d 9e 16 84 bd 9e 5d 40 bd
       0.0031308834 0.04431547 -0.064496264 -0.04696428
000070 4d 2c c8 bd 04 e9 6d bc ff 73 f6 3c fa 20 81 3c
       -0.09774075 -0.014520887 0.030084608 0.015762795
000080 d9 dd b7 bc 0d 36 88 3d 46 21 21 3d b8 73 03 bd
       -0.022444652 0.06650934 0.039338373 -0.03209278
000090 b3 8a 36 bd bd 5f 7c 3d e7 70 47 bd 13 af d1 bc
       -0.044565868 0.06161474 -0.048691656 -0.025596177
0000a0 5f 60 b4 3d 0e 29 24 3e 5c b8 0a 3d 6a a9 d7 bd
       0.08807444 0.16031286 0.033867225 -0.1053036
0000b0 49 ad be bd bb 63 aa bd 82 9d bf 3c b9 0d e3 bb
       -0.09310395 -0.08319803 0.023390535 -0.006929126
0000c0 29 d0 57 bd c3 ec 32 3e e8 58 f1 bb fb 7d 40 bc
       -0.05268875 0.1747313 -0.007365335 -0.011748786
0000d0 63 6f 3f bd 3f a3 fe 3d 14 31 fe bd e9 34 ad bd
       -0.046737086 0.124334805 -0.12411705 -0.084573574
0000e0 35 67 a4 3d d9 70 79 3c 4c 79 90 bc ff bb 09 be
       0.08027498 0.015224659 -0.017635964 -0.13450621
0000f0 fa e6 20 bd c9 52 86 3d 8e 7f 8d 3c a4 f5 0f be
       -0.039282776 0.06558759 0.017272737 -0.14058548
000100 81 a6 87 bd 77 91 71 bd 05 12 ba 3d 40 fd b9 bd
       -0.06623555 -0.058976617 0.09085468 -0.09081507
000110 a0 cb 8f bc 83 7c 89 3d 11 40 e9 3d 1b 04 86 3b
       -0.01755315 0.06713202 0.11389173 0.004089845
000120 c0 2c 6c 3d e2 62 c3 3d dc 52 9c bd 61 01 72 bd
       0.057659864 0.09540345 -0.07632992 -0.059083346
000130 65 a7 c6 bb 20 f4 e4 bc 1f 46 d9 bd d6 2c 16 bd
       -0.0060624355 -0.02794844 -0.10609078 -0.036663853
000140 df 63 13 bd 46 83 7c 3d 78 8e b5 3c 91 18 68 be
       -0.035983916 0.06164863 0.022162661 -0.22665621
000150 f0 2c 0b 3e d0 24 5c bd 72 37 67 3d 27 69 60 bd
       0.13591361 -0.053746045 0.05644936 -0.05478778
000160 33 40 78 bd d4 e8 9f bd fe 4d 24 3d d3 bc 2d bd
       -0.0606081 -0.0780808 0.04011344 -0.042416405
000170 89 08 04 be 2b 87 dc 3d 90 e1 f0 bd 18 ed 4d bd
       -0.12893881 0.10767969 -0.11761773 -0.05027494
000180 ed aa d8 bc 31 f3 1f 3e 76 bc 7a bd 07 87 12 bd
       -0.026448691 0.15620114 -0.061214887 -0.035773303
000190 c0 d8 dc 3c e9 c2 c4 bd 1d 7a 8e bb a9 88 84 bd
       0.026958823 -0.09607489 -0.004348053 -0.06471378
0001a0 4f 60 ff 3c c2 fc b1 bd 2b 2f e0 bc fc b3 b0 3c
       0.031173853 -0.08690788 -0.027366241 0.021570198
0001b0 a3 18 e8 bd fd fd a4 3c 20 f4 bc 3d e2 a4 31 bc
       -0.11332824 0.020140642 0.09226251 -0.010842534
0001c0 86 82 d7 bd b8 ef 9f 3d 47 ea 90 3d 99 76 c5 3c
       -0.10522942 0.078093946 0.07075935 0.024104403
0001d0 94 16 61 bd a0 af 88 3d 2a 23 be bd d4 c0 cc bc
       -0.054953173 0.06674123 -0.09284051 -0.024994291
0001e0 a8 b1 9a bd 52 94 5f bd af d0 29 3c 1f 60 8e bd
       -0.075534165 -0.05458481 0.010364695 -0.069519274
0001f0 ff 97 d4 bc 99 e0 a4 bd 52 43 68 bc 16 8f fe bc
       -0.025951384 -0.08050651 -0.014176207 -0.031074088
000200 09 67 af bd ae d2 e9 bc a7 e1 23 bc 36 9b c6 3d
       -0.08564574 -0.028542843 -0.01000253 0.09697573
000210 69 3f ed 3d fd 53 66 3d 2c 0d 75 3a 7e 0d a2 3c
       0.1158436 0.05623244 0.0009347971 0.019781824
000220 71 ab f6 3d 2d d4 15 bd 18 ea 3a 3c 5d 05 81 3c
       0.120444186 -0.0365793 0.011408351 0.015749628
000230 10 f0 27 3c ea 50 f6 3d 72 bf 19 3d 5b 59 f6 bd
       0.010250106 0.12027152 0.037536092 -0.12028762
000240 5b 88 a9 bc db e4 d5 bd f1 f7 38 3d 4b 3f 4f bd
       -0.020694902 -0.10444041 0.04515833 -0.05059747
000250 34 c1 4f bd 05 68 3a 3d 2a 08 02 3d 3e 3f 8b bd
       -0.050721362 0.045509357 0.031746067 -0.06799172
000260 59 9e 8a 3d 3a 1b b4 bc 8e 14 9b 3d ac 40 a6 3d
       0.06768484 -0.021985639 0.0757228 0.08117804
000270 aa d6 89 3d d4 b2 ba 3d 91 53 f0 3d b9 08 4b bd
       0.06730397 0.0911614 0.11734689 -0.049568865
000280 c8 ce af 3d ae a4 97 3b 88 e3 9a 3d 95 21 81 bc
       0.08584362 0.0046277856 0.075629294 -0.015763083
000290 d7 06 35 bd 39 c1 9f bd 54 a7 0a be 53 78 9d 3d
       -0.044195976 -0.07800526 -0.13540393 0.07688966
0002a0 af b6 94 bd 49 3d 65 bd bb d4 c3 3d d8 0e 33 bd
       -0.07261407 -0.05596665 0.095620595 -0.043715328
0002b0 5f 6c 9d 3d 1a 9b 62 3d c3 a8 b2 3d 87 4a a1 bc
       0.07686686 0.055323698 0.08723595 -0.019688858
0002c0 59 7c 7c 3d c4 b7 63 bd ef 2a 16 bc f6 4e 63 bd
       0.061642025 -0.055595174 -0.00916551 -0.055495225
0002d0 f4 f6 98 3b b1 be cd bd c2 c3 f1 3c 05 5a b6 3c
       0.004668111 -0.10046137 0.02951229 0.022259722
0002e0 3c 6a ac 3c 25 f7 73 3d b4 d7 da 3c 81 13 3b bd
       0.02104675 0.059561867 0.026714183 -0.045672897
0002f0 45 30 ef bd 5c 06 67 3d c2 06 ae 3d 1e cc 51 3d
       -0.116791286 0.05640255 0.08497383 0.051220052
000300 96 72 f3 bc 48 23 49 3d f1 80 5b bc 27 fd f4 bd
       -0.029717725 0.049105912 -0.013397441 -0.119623475
000310 72 fd 48 3c e0 d8 24 3d 44 70 3a bc 4d ff ec bd
       0.012267457 0.04024589 -0.011379305 -0.11572132
000320 ff c4 17 be a7 03 8e 3c aa 2c bc 3d 44 02 6c bd
       -0.14821242 0.017335726 0.091882065 -0.05761935
000330 c1 99 d0 3c c5 33 59 be b1 b6 c0 3d d0 ee 84 3d
       0.02546394 -0.21211155 0.094098456 0.06490862
000340 e3 25 f2 bd 27 6b 6f 3d f7 d4 31 3d ec 8f 48 bd
       -0.118236326 0.058451798 0.04341599 -0.04896538
000350 96 39 11 be d6 f9 d6 3d 9f 1f 37 3c 15 75 61 bc
       -0.14182124 0.10496871 0.011176973 -0.013760825
000360 93 38 74 3d 13 32 e2 bc 9d 22 a4 bc d9 f8 d7 bd
       0.059624266 -0.027611768 -0.020036036 -0.10545511
000370 55 1b 87 bd de 8c 4a 3c bf 82 90 3c d0 17 04 be
       -0.0659701 0.012362687 0.01764047 -0.12899709
000380 1f c5 ee 3d c7 09 6a 3d 3c 37 6b bb 78 3c 02 3d
       0.116586916 0.05713823 -0.0035891077 0.03179595
000390 01 c0 b6 3b b9 4d f5 3d 3c ec 56 3d ec 7a c0 bd
       0.005577088 0.11977715 0.052471384 -0.093984455
0003a0 d5 2e a1 3d a9 40 81 bd e2 27 ad bd 65 c3 d2 bd
       0.078702606 -0.06311161 -0.08454873 -0.10291175
0003b0 38 66 ef bb 61 60 09 be 79 e3 14 3d 52 4f 41 bc
       -0.0073058866 -0.13415672 0.036349747 -0.011798697
0003c0 e8 d8 25 bc 46 76 bc bd 7d 49 32 bc a7 b6 e3 3a
       -0.010122515 -0.09202246 -0.010881779 0.001737316
0003d0 59 a6 fd bc 46 9e 01 bd 9a 8a 1e 3d 4c 13 b9 bc
       -0.03096311 -0.031645082 0.0387064 -0.02259221
0003e0 ac b5 89 bd 64 9b 3f 3d 4f 4e b3 3c 82 d1 e4 bd
       -0.06724104 0.04677905 0.021887926 -0.11172773
0003f0 65 4f 51 bd 47 a0 b8 3c 2c 7f e3 3c de 8a 24 bd
       -0.051101107 0.022537364 0.027770601 -0.040171497

fc1.bias f4 [100]
000000 be fe 0f bf ab a0 53 3e 34 c6 86 3e 43 59 37 be
       -0.5624808 0.20666759 0.26323092 -0.17905144
000010 dc f9 c1 be 0b 5c 42 3f 2f 04 38 bf 79 cb d0 be
       -0.3788594 0.75921696 -0.71881384 -0.40780237
000020 50 2b 90 3f 7c 1b af bd e9 95 b2 be 9d 96 82 3e
       1.1263218 -0.08550164 -0.34879997 0.25505534
000030 fb 75 e2 3d 63 c0 e5 3e 77 3c 9c be d6 ec c9 bf
       0.11057659 0.44873342 -0.3051488 -1.5775402
000040 c5 48 88 bd fd 1b c4 be df 2a 98 3f 3f 5e da be
       -0.06654505 -0.38302603 1.1888083 -0.4265003
000050 33 23 22 be 1b 56 e1 be 7b f4 70 3f 59 67 87 3e
       -0.1583374 -0.44011006 0.9412305 0.26446036
000060 47 2d 27 bf dc 2a 5d bf 5b 25 aa 3f 53 3e 2b 3f
       -0.6530346 -0.86393523 1.329265 0.66891974
000070 ad 4e ff 3e b8 35 0a 3e c9 51 4b 3f 18 5a 14 bf
       0.49864712 0.13497055 0.7942167 -0.5794997
000080 31 c4 cb 3e 75 f2 31 be 18 29 83 be f0 f7 24 3f
       0.3979812 -0.17377646 -0.2561729 0.6444082
000090 1d a9 b5 be 85 3a 12 bf c5 a0 b2 be 3a 9b 74 bf
       -0.35480586 -0.57120544 -0.34888282 -0.95549357
0000a0 55 15 e3 be 8b 99 63 be 25 ce 14 3f fa 5e 46 3d
       -0.44352213 -0.2222654 0.5812705 0.04843042
0000b0 ec 31 54 be 23 50 c9 be ef 8b 17 bf 8e 99 28 3f
       -0.20722169 -0.39318952 -0.59197897 0.65859306
0000c0 4f 4e 36 bf 79 44 0d 3c 91 01 d3 3e b2 20 64 bf
       -0.7121324 0.008622282 0.41212133 -0.8911239
0000d0 97 35 35 be fd cc 93 3e 3a 7d 13 3f e0 04 19 bf
       -0.17696224 0.2886733 0.57612956 -0.59773064
0000e0 8e f4 c2 3e 15 5f 66 bf 36 3a 97 bf 58 a2 17 bd
       0.38077205 -0.89988834 -1.181464 -0.037020057
0000f0 e1 e6 85 bf 30 98 6c 3f 8c 6c fd 3e dc a0 cc 3e
       -1.0461084 0.9241972 0.49496877 0.39966476
000100 32 34 13 bf 80 eb 84 bf 68 24 9f bf 1f 4a 8c 3f
       -0.5750152 -1.0384369 -1.2432985 1.096012
000110 bc 94 78 bd cc e9 53 3e 2f 30 95 3f 65 3d a7 be
       -0.06068872 0.20694655 1.165533 -0.32664028
000120 03 ac 8b 3f 62 e0 a9 3f 71 5a 9b be d5 2f 24 be
       1.0911869 1.3271601 -0.3034244 -0.16033871
000130 42 37 d8 3e 57 b2 a5 3f 18 09 39 bf aa e0 5c bf
       0.42229658 1.294505 -0.722795 -0.8628031
000140 94 da a5 3f 3f ec 07 3e 99 b6 10 3f 77 99 ba 3c
       1.295733 0.13273714 0.5652862 0.022778256
000150 39 35 09 bf 3c c6 46 3d 50 c7 0a 3e 22 2c 8b be
       -0.53596836 0.048528895 0.13552594 -0.27182108
000160 f1 a4 8d 3e c3 42 fa 3e be 93 73 be f0 26 80 3e
       0.27664903 0.4887906 -0.23786828 0.25029707
000170 6d ea e2 3d 61 46 7f 3f fd d8 5b 3f a6 b2 71 3f
       0.110798694 0.99716765 0.8587797 0.9441322
000180 42 87 50 3e 50 a9 06 3e 28 3a 45 3e bb fc ea 3e
       0.20364097 0.13150525 0.19260466 0.45895943

fc2.weight f4 [67, 100]
000000 f4 50 68 3d 4d 00 26 bc 77 67 c7 bc e7 2d 1a 3c
       0.056717828 -0.010131908 -0.024341328 0.009410358
000010 6c ce 19 3d 3f a4 bf bd a3 fc c8 3d c4 12 0a 3d
       0.037550375 -0.09357499 0.09813812 0.033709303
000020 b5 58 20 be 4d c9 9a bb d2 81 96 3d 67 30 8c bd
       -0.15658839 -0.004723704 0.0734898 -0.068451695
000030 17 f5 c7 bc 60 ee 1d bd 0b 5c 88 3d 87 2c 1c 3e
       -0.02440886 -0.03855741 0.06658181 0.15251361
000040 3b 5c 8d 3c 38 23 88 bc 12 75 f6 bd 77 91 8a 3d
       0.017255893 -0.016618356 -0.12034048 0.067660265
000050 61 21 35 3c 68 0b cb 3d e6 61 e7 bd 54 0d bf 3b
       0.011055321 0.09914285 -0.112979695 0.0058304463
000060 ee cd c4 3d 2a 6b e0 3d d2 93 e5 bd 13 b6 59 bd
       0.096095905 0.1095794 -0.11209835 -0.053152155
000070 48 60 2a bd 81 ba 3a bd 6d de 9f bd 20 b8 bc 3d
       -0.041595727 -0.04558802 -0.07806096 0.092148066
000080 2c e2 5e bd 91 cf 8b 3b f2 32 17 3d 08 c6 5a bd
       -0.054414913 0.004266687 0.03691382 -0.053411514
000090 95 90 af 3c 14 1d 15 3d 17 63 28 3d c4 5d 9f 3d
       0.021431247 0.036404684 0.041110124 0.07781556
0000a0 e7 b3 ed bc 8a 90 8a bc 89 8b a3 bd 63 bb ed bb
       -0.029016448 -0.016914625 -0.079855986 -0.0072550043
0000b0 b9 a8 16 3d 63 5d b2 3d 09 8d af 3d fb 7d e1 bd
       0.036782 0.08709218 0.08571822 -0.11010357
0000c0 68 59 c6 3d 6b 1d f1 3c 42 41 66 bd 62 49 9b 3d
       0.09685022 0.029432973 -0.05621458 0.07582356
0000d0 46 34 ae 3c c3 48 58 3c 47 c7 c2 bb 4e d4 c6 3d
       0.02126516 0.0132009415 -0.005944166 0.09708463
0000e0 9c d5 8a bd 15 5e 11 3e f2 31 10 3e e6 93 0e 3b
       -0.06779024 0.14196046 0.14081553 0.0021755635
0000f0 5c 9a b3 3d 94 71 fc bd 5a 11 bf bc b7 cb 4d bd
       0.08769676 -0.12326351 -0.023323704 -0.050243106
000100 a0 79 60 3d dc a6 a3 3d 30 bb ba 3d 9b c4 1c be
       0.05480349 0.0799081 0.091177344 -0.15309374
000110 8b 97 82 3d b6 85 c9 3a 16 b9 08 be 9c 42 ae bc
       0.06376561 0.0015374932 -0.13351855 -0.021271996
000120 18 98 01 be b5 40 08 be f8 e0 74 3d 48 c5 45 3d
       -0.12655675 -0.13305934 0.05978486 0.048283845
000130 bb 8a 04 be 1d 6e ee bd a6 df aa 3d e3 75 02 3e
       -0.12943546 -0.11642096 0.08343439 0.12740283
000140 16 ee 0b be 6c b4 cf bb 01 fd ec bc a0 c8 1b bd
       -0.13665041 -0.0063386466 -0.028929235 -0.038033128
000150 af ed 68 3d 3d 26 3b bd 88 7c cd bc a9 9f 4d bc
       0.056867298 -0.045690764 -0.025083795 -0.012550273
000160 42 1c 11 3c 8e 2f b7 bd d1 84 0b 3d 3d 69 51 bd
       0.008856835 -0.08944617 0.03406221 -0.051125754
000170 fb 75 30 bd 37 97 ca bd 9f aa a1 bd 4f 0b af bd
       -0.043081265 -0.09892123 -0.078938715 -0.08547079
000180 56 1b da 3c 03 4e d7 bc 32 b2 f8 bc 32 05 e4 bc
       0.026624363 -0.026282316 -0.030358408 -0.027834509
000190 f5 50 68 3d 4e 00 26 bc 76 67 c7 bc e7 2d 1a 3c
       0.05671783 -0.010131909 -0.024341326 0.009410358
0001a0 6e ce 19 3d 3e a4 bf bd a3 fc c8 3d c4 12 0a 3d
       0.037550382 -0.093574986 0.09813812 0.033709303
0001b0 b4 58 20 be 4d c9 9a bb d1 81 96 3d 67 30 8c bd
       -0.15658838 -0.004723704 0.07348979 -0.068451695
0001c0 17 f5 c7 bc 60 ee 1d bd 0c 5c 88 3d 88 2c 1c 3e
       -0.02440886 -0.03855741 0.066581815 0.15251362
0001d0 39 5c 8d 3c 36 23 88 bc 12 75 f6 bd 77 91 8a 3d
       0.01725589 -0.016618352 -0.12034048 0.067660265
0001e0 5e 21 35 3c 68 0b cb 3d e6 61 e7 bd 54 0d bf 3b
       0.011055319 0.09914285 -0.112979695 0.0058304463
0001f0 ee cd c4 3d 2b 6b e0 3d d3 93 e5 bd 13 b6 59 bd
       0.096095905 0.10957941 -0.11209836 -0.053152155
000200 47 60 2a bd 81 ba 3a bd 6e de 9f bd 21 b8 bc 3d
       -0.041595723 -0.04558802 -0.07806097 0.09214807
000210 2d e2 5e bd 90 cf 8b 3b f3 32 17 3d 08 c6 5a bd
       -0.054414917 0.0042666867 0.036913823 -0.053411514
000220 96 90 af 3c 14 1d 15 3d 16 63 28 3d c4 5d 9f 3d
       0.021431249 0.036404684 0.04111012 0.07781556
000230 e7 b3 ed bc 88 90 8a bc 89 8b a3 bd 5f bb ed bb
       -0.029016448 -0.016914621 -0.079855986 -0.0072550024
000240 b9 a8 16 3d 64 5d b2 3d 0a 8d af 3d fb 7d e1 bd
       0.036782 0.08709219 0.08571823 -0.11010357
000250 68 59 c6 3d 6a 1d f1 3c 41 41 66 bd 62 49 9b 3d
       0.09685022 0.029432971 -0.056214575 0.07582356
000260 46 34 ae 3c c3 48 58 3c 47 c7 c2 bb 4e d4 c6 3d
       0.02126516 0.0132009415 -0.005944166 0.09708463
000270 9c d5 8a bd 15 5e 11 3e f3 31 10 3e ee 93 0e 3b
       -0.06779024 0.14196046 0.14081554 0.0021755653
000280 5b 9a b3 3d 93 71 fc bd 5b 11 bf bc b7 cb 4d bd
       0.08769675 -0.1232635 -0.023323705 -0.050243106
000290 a1 79 60 3d da a6 a3 3d 30 bb ba 3d 9b c4 1c be
       0.054803494 0.07990809 0.091177344 -0.15309374
0002a0 8b 97 82 3d b4 85 c9 3a 17 b9 08 be 9e 42 ae bc
       0.06376561 0.001537493 -0.13351856 -0.021272
0002b0 18 98 01 be b6 40 08 be f8 e0 74 3d 49 c5 45 3d
       -0.12655675 -0.13305935 0.05978486 0.04828385
0002c0 bb 8a 04 be 1d 6e ee bd a6 df aa 3d e3 75 02 3e
       -0.12943546 -0.11642096 0.08343439 0.12740283
0002d0 15 ee 0b be 6b b4 cf bb 01 fd ec bc 9f c8 1b bd
       -0.1366504 -0.006338646 -0.028929235 -0.038033124
0002e0 b0 ed 68 3d 3e 26 3b bd 88 7c cd bc aa 9f 4d bc
       0.0568673 -0.045690767 -0.025083795 -0.012550274
0002f0 41 1c 11 3c 8f 2f b7 bd d2 84 0b 3d 3d 69 51 bd
       0.008856834 -0.08944618 0.034062214 -0.051125754
000300 fa 75 30 bd 37 97 ca bd 9f aa a1 bd 4f 0b af bd
       -0.04308126 -0.09892123 -0.078938715 -0.08547079
000310 57 1b da 3c 03 4e d7 bc 36 b2 f8 bc 32 05 e4 bc
       0.026624365 -0.026282316 -0.030358415 -0.027834509
000320 2b 51 5e 3e 21 d6 1a bf 4d 7f 86 be 82 fb 43 3f
       0.2171065 -0.60482985 -0.26268998 0.76555645
000330 ac 74 ec be 52 1f 46 bf 39 0a 9d be 16 1d 1a 3f
       -0.46182764 -0.7739154 -0.30671862 0.6020063
000340 2d a9 6c 3f d6 0b 08 bf 16 71 c1 3e db b7 33 bf
       0.9244564 -0.5314306 0.3778159 -0.70202416
000350 48 8d 90 3d bb be 9a be 40 ce 2d be 46 67 d3 3d
       0.07058197 -0.3022364 -0.1697321 0.10322432
000360 ef e1 24 3e 45 fe bd be c9 87 2d 3f a3 de 56 3e
       0.16101812 -0.37108055 0.67785317 0.20983367
000370 03 f2 1f 3d 43 2a b0 3f e6 9d 27 be cc a2 d9 be
       0.03904916 1.3762897 -0.16368827 -0.42507017
000380 8d af 6f 3e 11 81 6c be f4 a3 5c 3e 28 c4 8d be
       0.23406811 -0.2309611 0.21546918 -0.27688718
000390 25 96 c1 be f8 43 c8 3c 3e 62 0b be 52 aa 9a 3e
       -0.37809864 0.024446473 -0.13611695 0.3020807
0003a0 68 56 3f bf a1 97 c8 bd 09 7b af 3d 13 e9 82 be
       -0.7474122 -0.09794546 0.08568389 -0.25568447
0003b0 2c c7 b7 bd 4b b9 78 be e8 ac db be 50 49 03 3e
       -0.08973536 -0.24289434 -0.42905354 0.12820935
0003c0 e8 81 5e be 9a 09 a8 be 55 15 85 be ef 73 3b 3f
       -0.21729243 -0.32819825 -0.25992838 0.73223776
0003d0 8c 4b 08 bf 78 d1 8c 3e 03 78 4d be 0a 2c 36 3f
       -0.53240275 0.27503562 -0.20065312 0.7116095
0003e0 ea 5b b1 be 44 cf 08 3f 09 d7 ba 3e dc f8 98 3d
       -0.34640437 0.5344126 0.36492184 0.07469341
0003f0 a0 30 33 3e b7 3d e7 3e bd ad 32 3e bb da 07 3d
       0.17499018 0.45164272 0.17449088 0.033167582

fc2.bias f4 [67]
000000 5e 55 35 be 5e 55 35 be 8e 5a 5f bd 89 2c 43 bd
       -0.17708346 -0.17708346 -0.05452972 -0.047649894
000010 4f 72 de bd 6d 83 34 be 1f bd 36 be a9 46 09 3f
       -0.108616464 -0.1762826 -0.17845581 0.53623444
000020 7f 9e ec 3e 93 67 7f bf 03 ee c4 be ac 74 2a be
       0.46214673 -0.99767417 -0.3846284 -0.1664607
000030 61 be dd 3f 22 10 04 bf ac ba 0c bf 1f ca 70 3e
       1.7323724 -0.51587117 -0.5497234 0.23514603
000040 58 c1 80 bc 0f 56 30 be fe 3c 87 3e 85 29 b8 3e
       -0.015717193 -0.17220329 0.2641372 0.35969177
000050 09 c5 1a 3d 3b a2 52 3e 1c d0 00 3e 2f 20 e5 be
       0.037785564 0.20569699 0.12579387 -0.44751117
000060 ba f2 31 be 4c a1 14 3e 36 12 c7 3c 3e d4 43 3e
       -0.17377749 0.14514655 0.024300676 0.19123933
000070 7d 52 0d be 9a 3d ab be 67 2a 38 3d ed 42 10 be
       -0.13800998 -0.33445436 0.044962313 -0.1408803
000080 51 75 ac 3c 46 df 2b be 6b 4b 82 be c8 29 ad 3e
       0.021052035 -0.16784391 -0.25448164 0.3382094
000090 8c df ed bd 2b 6b ac 3d 48 91 4f bd 7a f1 6e 3d
       -0.11614904 0.08418878 -0.05067566 0.05833576
0000a0 8e 03 8c bc 3b 25 8a 3f 48 7e d9 3d 21 2f 9a 3e
       -0.017091539 1.0792612 0.10619789 0.30114082
0000b0 dd 14 ec be e4 fd 97 be 23 09 bf 3c ae 43 17 bf
       -0.46109667 -0.2968589 0.023319786 -0.59087646
0000c0 f2 78 b6 be 7e a2 ac 3e 98 9a 1c bf b3 dd b5 bf
       -0.3563915 0.33717722 -0.6117339 -1.4208282
0000d0 e0 fc 70 3f a9 5e 09 3e bd 3e c2 3e ee d5 00 3d
       0.94135857 0.13415016 0.3793849 0.03145402
0000e0 dd 34 7e bd 95 ee 41 bf 69 74 c0 3e 9d bb e4 3e
       -0.062062133 -0.7575467 0.37588814 0.44674388
0000f0 3b 45 8b be 5a 85 da 3e 57 5a 46 bf 1c 7f 1d bd
       -0.27201256 0.42679864 -0.774816 -0.0384513
000100 dd 4c c7 be 55 c7 37 bf d4 5c 25 bf
       -0.3892583 -0.7178853 -0.6459477
