assigment_2/charlm_outputs/char_lm.pt (torch, 264076 bytes, 5 tensors)

embedding.weight f4 [41, 30]
00000000: 2a01 2f80 fe77 5481 24ae 5f80 728f 6a00
00000010: eaee 6800 deca b400 35c8 4801 420c 0a01
00000020: fe80 aa01 b34a fb00 b05a 0e81 f1e8 8b00
00000030: 2076 0601 0a8f 5401 aa99 b881 5d55 7e80
00000040: dd34 9701 7f6e 4300 8ee3 0901 2ee1 3600
00000050: a583 dc80 36d6 6000 b542 b301 0a52 7980
00000060: 568c b280 c02d 7d00 a496 0501 37ab e100
00000070: 23e9 bf80 f8d4 6501 8fd7 8701 8681 fb00
00000080: b61b 1080 48cc 1200 ca78 9b01 d734 a780
00000090: 2001 7a01 38de 7301 2043 c780 37d6 bf80
000000a0: 0c49 0080 eb20 8201 56e3 0381 4e9d 2081
000000b0: d4dc 1600 d0e1 3a01 a89e 0801 6332 e300
000000c0: 3990 5200 663f d900 798e e600 aa1a e180
000000d0: f4a2 8900 6bc2 de80 5c3e 7681 bd76 0681
000000e0: ea59 d100 8844 1381 ae43 ee00 0ad0 5481
000000f0: cbdf eb3f 9fbe 483f f158 9c3f 94e4 bbbf
00000100: 9bbc 4bbf 0d2b 903f 86b2 d33e 054d 7abe
00000110: 34c0 cabf 4bc4 8d3d dcac 6a3f e892 183e
00000120: 10a9 d3be e818 313f dd2e 8cbf 9b8c 84bf
00000130: eac5 0a3f 4b46 21bd 16bf a6bf a3fb 3e3d
00000140: 96a8 75bf 2c40 a6bf ab3f 49bf b0b3 c63d
00000150: 759a 033e 421f 803f dfe8 49bf 068d 543f
00000160: 1c47 95bf 444f bdbe 88af ccbd 4b47 293f
00000170: 7da2 503f 7d67 08c0 c28f 57bd 705f 163f
00000180: a96b f93e a17b 123f 3104 263f 9f5f 903d
00000190: 59e0 a23e 0195 293e f3d6 53bf b421 fb3e
000001a0: 549a a2be 7340 b3bc dca4 183f a6b8 c73e
000001b0: b58d 2dbf 73dd d53e c0c2 4fbe 7af2 93bf
000001c0: 6962 3abf 7222 813e 2e4c ef3e 2170 ce3f
000001d0: 2ddb 36bf 3c22 53bd 0eaf edbf 10b3 443f
000001e0: 5026 7e3f a344 7bbf d9c1 2f3e 9764 c4bf
000001f0: 675f 4abe d4f5 3abf d09a afbe 6e19 e73d
00000200: 030d cabd be2a 6fbf 3f25 973e 1714 a33f
00000210: d0dc 693f 4cb3 04bf 90b0 b7be 51b1 10bf
00000220: 5f08 96be 1ead 8a3f c9fd 91be 4838 c83f
00000230: 78b3 66bf f4f1 ec3f a93f d13f 3786 823f
00000240: e90c e83e 4e4f 313d 21fb 363f d881 ee3e
00000250: 7da2 2bbe 706c 99bf b03e 15bd 9823 8dbd
00000260: e44c 7e3c 3370 773d a2f5 ee3c 0bd0 d33c
00000270: a476 b6bc 4b51 9abc e0d3 ae3c 1177 613c
00000280: 8013 e33c 865e 933d 7b91 65bc fbac 303c
00000290: fef2 49b9 cd58 bd3c 9a07 cf3b 55bf 9a3c
000002a0: dada 7ebd 7f92 0dbd 8eb6 a93c 2f99 663d
000002b0: 2547 f43c 54f3 15bc a476 593c e737 abbb
000002c0: f64a ac3b 5345 87bd 16cd 0a3d fa83 cfbd
000002d0: 5ab4 f1bb c240 7abd b560 4fbd b5a3 8cbd
000002e0: c865 63bb 4272 45bd 4924 9cbd e0bf 6fbd
000002f0: 9346 bbbd f7e5 12bd fef6 153d 12dc dc3d
00000300: 23be 1b3e d4f5 8e3d a853 0cbe dce3 afbd
00000310: cdfe 33bc 0367 9d3e 2477 323e 8858 c3bd
00000320: a513 14be 0cae b9bc 559e ef3d 1132 863a
00000330: fc90 003e 2682 8a3e 526b 143d 249d 9e3b
00000340: 7fcc b83d 65ee 023d d09e 30c0 d061 843d
00000350: 75a9 b2bf 26ad 9d3f d7ed dc3f 6f2a a53f
00000360: 58bc cdbf b77d 0dc0 dcca f73d 8859 ffbf
00000370: deef 17bf c574 d23f e98f 833f 15e0 be3f
00000380: 2346 41bf a22d 50bf 1e77 c03f 628c 873f
00000390: 467d 913d 6b22 db3f 0c1e 42bf 73ed d63e
000003a0: 6eea 8dbf b960 21bf 12c8 10bf d0e0 5c3e
000003b0: 196a a7bf f1a9 ac3f 9d55 3bbe a53c a4bf
000003c0: d57f 613f 272f dbbe d480 94bf 6ecc 4abf
000003d0: ef98 02be 2c95 cbbf e2f0 9dbf f03c 703e
000003e0: dc0f b13e 089a 95bc 34a9 f2bc 9bab f23e
000003f0: fbef 173e 7847 83bc 687f 63bf e18b 85be
-4.316686e-39 -3.902434e-38 -8.786842e-39 9.786021e-39 9.636598e-39 1.6603164e-38 3.687784e-38 2.5355391e-38
6.263323e-38 2.3077507e-38 -2.6146346e-38 1.2848698e-38 2.4696664e-38 3.9040876e-38 -6.781142e-38 -1.1601895e-38
5.5544495e-38 6.192617e-39 2.5326188e-38 5.039896e-39 -2.0251034e-38 8.893052e-39 6.5849935e-38 -1.1141525e-38
-1.6397061e-38 1.1495849e-38 2.453632e-38 2.0724407e-38 -1.7624213e-38 4.2213455e-38 4.990048e-38 2.3097174e-38
-1.479309e-39 1.726321e-39 5.711133e-38 -1.5355483e-38 4.5918555e-38 4.4791485e-38 -1.8299344e-38 -1.7617426e-38
-2.6204e-41 4.7801693e-38 -2.4224006e-38 -2.950022e-38 2.099599e-39 3.4324817e-38 2.5093085e-38 2.0864733e-38
7.582248e-39 1.9951046e-38 2.1173274e-38 -2.0672552e-38 1.263992e-38 -2.0457224e-38 -4.5227805e-38 -2.4697104e-38
1.9225874e-38 -2.7048805e-38 2.1881127e-38 -3.908751e-38 1.8427671 0.78415865 1.2214643 -1.4679132
-0.79584664 1.1263138 0.4134714 -0.24443443 -1.5839906 0.069222055 0.9167001 0.1489979
-0.41339922 0.6917863 -1.0951802 -1.0355409 0.5420824 -0.039373677 -1.3027065 0.0466267
-0.95960367 -1.2988334 -0.78612775 0.097022414 0.1285189 1.0009539 -0.7887096 0.83027685
-1.1662326 -0.36974537 -0.099944174 0.6612441 0.8149794 -2.1313164 -0.052627333 0.58739376
0.4871495 0.5721989 0.64850146 0.07049488 0.3181179 0.16560747 -0.8274986 0.4904915
-0.31758368 -0.021881318 0.59626555 0.39008063 -0.6779435 0.41770515 -0.20289135 -1.1558373
-0.7280641 0.25221592 0.46737808 1.6127969 -0.71428186 -0.05154632 -1.8569047 0.7683573
0.9927721 -0.98151606 0.17163791 -1.5343198 -0.19762956 -0.73031354 -0.342978 0.11284147
-0.09865763 -0.93424594 0.29520604 1.2740506 0.9135256 -0.51836085 -0.35876894 -0.56520563
-0.29303262 1.0834081 -0.28513935 1.5642176 -0.901176 1.8511338 1.6347553 1.0197209
0.4532235 0.04328852 0.7147694 0.46583438 -0.16761203 -1.1986217 -0.036436737 -0.068915546
0.015521262 0.060409736 0.029169861 0.025856039 -0.02227337 -0.018837592 0.021341264 0.013761298
0.02771926 0.07195763 -0.014011736 0.010783429 -0.00019259375 0.023113633 0.006318045 0.018890062
-0.062220432 -0.034563538 0.020716932 0.05629843 0.02981908 -0.009152252 0.013272915 -0.00522517
0.0052579595 -0.066050194 0.03388699 -0.101325944 -0.007376236 -0.061096914 -0.050629336 -0.06867162
-0.0034698118 -0.048204668 -0.07624108 -0.058532596 -0.0914432 -0.035863843 0.036612503 0.107841626
0.1520925 0.06980482 -0.13703787 -0.085883826 -0.010986042 0.30742654 0.17428261 -0.0953837
-0.14460619 -0.022666 0.11700121 0.001023831 0.12555307 0.2705242 0.03623516 0.00484051
0.090233795 0.031965632 -2.7596931 0.06463969 -1.3957964 1.2318466 1.7260083 1.2903575
-1.6073103 -2.210798 0.12099239 -1.9949198 -0.59350383 1.6441885 1.0278293 1.4912134
-0.75497645 -0.8131963 1.5036352 1.0589716 0.07103972 1.7119879 -0.758271 0.41978034
-1.1087167 -0.6303821 -0.56555283 0.21570134 -1.3079253 1.3489362 -0.18294378 -1.2831007
0.8808568 -0.42809412 -1.1601815 -0.79218185 -0.12753652 -1.5904899 -1.2339137 0.23460746
0.34582412 -0.018261924 -0.029621698 0.4739655 0.14837639 -0.01602529 -0.8886628 -0.26083282

fc1.weight f4 [100, 600]
00000000: 93f0 72bc a358 4cbc 0fdb cc3c c91f 22bd
00000010: 91d6 973c 0438 34bd d75d d5bc 0080 933d
00000020: 3c4b 313c 207b 233d 838a 36bd 5fff 11bc
00000030: 388f 9cbc 7685 3fbd 6810 cf3c 8e85 2c3d
00000040: 691a cc3c 93ef da3d fc51 9f3d ddba 3e3b
00000050: 35cb 34bd bde9 5bbc 48ed fdbc 2922 8ebd
00000060: d83a e93d 34ba 17bd 9d08 65bd 2243 153d
00000070: afe7 ad3b d5f2 e5bb e02c 11bb b613 6a3d
00000080: be32 3abd 4312 093d 26c0 c73c 68ed 12bd
00000090: fadb e73b e1d5 983d 0d56 a83c 208a 35bd
000000a0: 8346 cd3c d91d 9d3d ee9c aab9 e821 a83c
000000b0: 3b17 e33b eef4 703c a5d4 8e3d 5861 25bd
000000c0: f941 30bd c31a 1d3c 9217 a13c 9aae a53c
000000d0: 17f9 bdbd ee9b 3b3d 0103 ca3b e76b 923d
000000e0: 9bfa b2bc 4b24 89ba be8a 14bd 5aa5 ec3c
000000f0: 6560 5c3d dcdb 5239 916b 27bc 0747 283d
00000100: 4679 233d b1dd c6bd 25d4 253d abf8 343d
00000110: 226c babb d55f b13d 8faf 91bd dc45 47bd
00000120: 21db fbbc 1a15 76bc 1b95 c63c 024c 91bc
00000130: ebaf 48bc fa12 083d ac3e 333c 4c4a aabd
00000140: abdb 993c 856c 163d 8e3c 27bb 7d74 6ebd
00000150: 132c f43d 80d7 ae3b edee 7d3d 2d0c 6b3d
00000160: 934a 38bd 3eae 7c3d de94 6c3c 755c 0ebc
00000170: a384 053d c170 043d 9112 cbbb c33e eabd
00000180: be53 673c 6523 ff3c c0ee 923d 5e67 783d
00000190: a2ac f83c bf55 83bd ecc8 ca3b 000f 403d
000001a0: afb1 49bb 4ff3 6d3c 4346 97bb cdf0 3ebd
000001b0: 8eb9 b4bb 6454 593d 4a14 4ebd e05f 043c
000001c0: 553e 903d a791 46bb bdad 6e3d 4a0e 20bd
000001d0: c334 82bd 5acb ad3d 7cbb 7fbd 8464 d43d
000001e0: fcc2 f8bc 589b dc3c 903d 163c 74ee c3bb
000001f0: 5196 9b3c a1b2 9abc 7253 043d ff69 513b
00000200: cbc3 ba3d 1268 b2bc 4ecc 693c 7003 43bd
00000210: f136 933b 9c85 b03d 5d31 033e 5c88 cbb9
00000220: 38d4 1f3b 6bf4 50bc f273 7b3d 18c5 1a3d
00000230: ebaf 8abb 6d70 40bb 9ae1 5bbd d13d 183c
00000240: 2338 1bbc 6d79 903c 53c7 61bd 0874 a33b
00000250: 4351 ee3c 377e fd3c 8228 8abc be19 d33c
00000260: 4552 633d 4354 84bc 3916 b23d fa57 423c
00000270: 95ce 34bd cd96 1e3c 6253 673b f91f 1dbd
00000280: 8dd2 80bd 4c81 bebd f0ef 853a 18f0 8a3c
00000290: ff67 833c 00bc 193d 5d95 03bc 0ac3 9cbc
000002a0: f4c9 bc3d c1eb 3d3b 48fc d8bc f07b 43bc
000002b0: 6a11 d5bd 34f5 423d e28c 2fbd 7c21 813d
000002c0: 6b52 b0bc 5704 6fbc 7303 54bd 8ec5 62bd
000002d0: 241b 3e3d b230 0c3d eae2 0d3d d940 a73b
000002e0: 0ebd fb3b db04 84bd a328 f7bc 3b78 663d
000002f0: a385 af3b efaf 1b3d c4f6 a03d 362a 80bd
00000300: b088 c63c 2191 793c 9d1e b8bc 8a21 4abd
00000310: 6bdc a43d aba2 eb3c f03f 003d 33e7 a0bc
00000320: 9e3f 97bd 191e 31bd 094c a73c 0f65 b23c
00000330: bbb9 223d fc4e a4bc aaae 813a 1ff0 833c
00000340: 4ff8 a8bd 0c7e 30bd 4c4c 1d3d 7a12 33bc
00000350: 2444 fabc f8cb b33c 5cf2 5f3d d6ab f93c
00000360: c7b5 05bd bec9 5f3c 92c2 b1bb 6b10 42bd
00000370: 984a cabb 7d3e bf3d f7f1 523c 0bb9 623d
00000380: da3b 99bc 884b 91bc 85d8 20bd 3c71 29bc
00000390: fc52 153d 2150 963b a61e 46bc b2d8 11bb
000003a0: c4f8 473c d474 273c 8413 173d ef45 dcbc
000003b0: 4284 32bd 8eb5 23bd c06d f23c 9c56 df3c
000003c0: 409b 18bc b0bf 443d 28ae fbbd ab0c f53c
000003d0: e25f bebd 4f77 833c b117 7e3d 1dda 04bd
000003e0: a1bb 04be f2f9 223c d7af 353d d92f 11bd
000003f0: 2e5d 07bd e2a8 1d3d 36d9 0d3c 5f4a 013e
-0.014827865 -0.0124723045 0.025006799 -0.039581094 0.01853493 -0.043998733 -0.026045723 0.072021484
0.01082116 0.039912343 -0.04456569 -0.008910983 -0.01911126 -0.046758138 0.025276378 0.042119555
0.024914937 0.106902264 0.07779309 0.0029103078 -0.044139106 -0.013422427 -0.030996934 -0.06940109
0.11388177 -0.03704281 -0.055916417 0.036440976 0.00530716 -0.007017473 -0.0022151992 0.057147704
-0.045458548 0.03346468 0.024383616 -0.03587094 0.007075784 0.07462669 0.020548845 -0.04432118
0.025058037 0.076717086 -0.00032541848 0.02052398 0.0069302595 0.014706833 0.069741525 -0.040376037
-0.043031666 0.0095889 0.01966456 0.020224858 -0.09276026 0.045803003 0.006164909 0.07149487
-0.021848014 -0.0010463087 -0.036265127 0.02888744 0.053802866 0.00020109065 -0.010218517 0.041083362
0.039910577 -0.09710253 0.04048552 0.04418246 -0.00568916 0.08660857 -0.07113563 -0.048650607
-0.030744137 -0.015019679 0.02424102 -0.017736439 -0.012248973 0.033221222 0.010940235 -0.08314952
0.018781504 0.036724586 -0.002551827 -0.05821656 0.11922469 0.005335748 0.061995436 0.05738466
-0.044992995 0.061689608 0.01443979 -0.008689036 0.032597195 0.032334093 -0.0061972816 -0.11437752
0.014119087 0.031144807 0.07174444 0.060645454 0.030355755 -0.06412839 0.0061885025 0.046889305
-0.0030776074 0.014523341 -0.00461653 -0.046616364 -0.005515284 0.053058997 -0.050312318 0.008079499
0.07043139 -0.0030299218 0.05827116 -0.039076127 -0.0635772 0.08486052 -0.06243466 0.10370734
-0.030366413 0.026929542 0.009169951 -0.0059793536 0.018992575 -0.018884005 0.032306142 0.0031954048
0.09119376 -0.02177814 0.014269901 -0.0476107 0.0044926335 0.08619234 0.128118 -0.00038820773
0.0024387967 -0.012753586 0.06138987 0.03778562 -0.004232397 -0.0029363886 -0.053681947 0.009292082
-0.009473833 0.017636025 -0.05512173 0.0049881972 0.029091483 0.030943973 -0.016865019 0.02576911
0.05549838 -0.01615346 0.08695645 0.011861796 -0.044142324 0.009679508 0.0035297503 -0.03836057
-0.062901594 -0.09302005 0.0010218602 0.016960189 0.0160408 0.037532806 -0.008031216 -0.01913597
0.09218207 0.0028979632 -0.026487485 -0.0119314045 -0.10403712 0.047597125 -0.042858966 0.06305215
-0.021523675 -0.014588437 -0.051761102 -0.055364184 0.046412602 0.034226127 0.03464023 0.005104166
0.007682449 -0.064462386 -0.030170744 0.056267004 0.005356507 0.03800958 0.07859567 -0.06258051
0.0242351 0.015232355 -0.022475535 -0.04934839 0.08049854 0.02876409 0.031310976 -0.019641494
-0.07385181 -0.043241594 0.020421999 0.021776704 0.039727908 -0.020057194 0.0009893973 0.01610571
-0.08250486 -0.043088958 0.03840284 -0.010929698 -0.03055007 0.021947846 0.05467449 0.030477446
-0.03264406 0.013658939 -0.005424806 -0.04737894 -0.006173443 0.093380906 0.012875072 0.055352252
-0.018705297 -0.017736211 -0.03926899 -0.010341939 0.036456093 0.004587189 -0.012092268 -0.0022254405
0.012205306 0.010220725 0.036883846 -0.026888816 -0.043583162 -0.039968066 0.029593349 0.027262978
-0.009314358 0.04803437 -0.12289077 0.029913267 -0.09295632 0.016048102 0.062034313 -0.03243457
-0.129622 0.009947287 0.044357147 -0.03544602 -0.033047847 0.038491137 0.008657744 0.12626027

fc1.bias f4 [100]
00000000: bc09 983d 2c95 94be 9e17 bcbd d9af eebe
00000010: 080c aebe abd6 c93e 2d8f b9bd ac13 aebe
00000020: 3166 dc3d 5916 3e3e 725d 593e d409 c93e
00000030: 71a4 c23d 344f b8be 779d 9a3e 5ff1 98be
00000040: 2377 12be 6d23 b73e 1b7e 3bbd 0d86 843e
00000050: f167 c2bd fd61 adbe 92d9 f23e 1ae2 033f
00000060: 6aeb 063d 17bb 433e a7ed e7bd e6b7 eebe
00000070: 328d cfbe 02a0 bbbe b416 c33e 3e94 d8bd
00000080: 7040 32be f805 623e a553 fc3e 5f48 29be
00000090: 6d22 dd3e 52ba 37bd a73e 05bb 4814 e2bd
000000a0: f912 203e 220e 36be 90a2 a7be 64e9 9abe
000000b0: b12a fa3d 6949 d43d cdf4 d5bd 47bd a73d
000000c0: 1d9c 20be ee2a b9be a9f0 573e ba81 3ebe
000000d0: 2e1e 3bbe 62b5 843e 4aa6 32be 8e8e 0abe
000000e0: 781f cd3e bf83 213e 6a9d 3a3d 6fd2 a1be
000000f0: fca8 99be b01f 0cbc 8139 bdbe 5bae 76be
00000100: 6841 a93e 9cec bc3c b91a 143f 83a2 d4be
00000110: 30f2 b6be f679 e63e 172f c3be 775b 8e3c
00000120: e8f7 e0bd 3212 82bd 63a7 40bd 84bb c8be
00000130: 3510 073f ce41 0f3f 9c89 b83c 8edc 9c3d
00000140: a660 943e 5668 c6bd 9690 fdbd 8144 a7be
00000150: f0f1 d13d 43a1 b4bd ed3d ad3e 81ed d33d
00000160: c88d 6fbe b7ba a83e 9ef7 b0bb d9ae d0be
00000170: 11b1 bbbe fdea f93c 80c0 c43e 17ba c13e
00000180: f781 d53e 303c b5be 2808 2dbe 0d1d 8c3e
0.07423732 -0.2902006 -0.09184192 -0.46618536 -0.33993554 0.3942159 -0.09060512 -0.33999383
0.10761679 0.18563212 0.21227053 0.3926531 0.09504021 -0.35997927 0.3019826 -0.29871652
-0.1430326 0.35769215 -0.04577456 0.25883523 -0.094924815 -0.33863822 0.47431618 0.5151688
0.032939352 0.19114338 -0.113246255 -0.46624678 -0.4053741 -0.36645514 0.3810326 -0.1057515
-0.17407393 0.2207259 0.49282566 -0.16531514 0.43190327 -0.044855423 -0.0020331533 -0.110390246
0.15632237 -0.17778829 -0.32741213 -0.30256188 0.12215174 0.103655644 -0.10447083 0.08190399
-0.15684552 -0.36165565 0.21087898 -0.18604174 -0.18273231 0.25919634 -0.17446247 -0.13530943
0.4006307 0.15772913 0.045560278 -0.3160586 -0.30011737 -0.008552477 -0.36957934 -0.24089949
0.33057714 0.023062043 0.57853276 -0.41530237 -0.3573165 0.45014924 -0.38121864 0.017377598
-0.10984784 -0.06351127 -0.047034632 -0.39205563 0.52759105 0.55959785 0.022526555 0.07659255
0.28979987 -0.09687869 -0.12381093 -0.32669452 0.10251224 -0.08819821 0.33836308 0.10348035
-0.23393929 0.32954952 -0.005400612 -0.40758398 -0.36658528 0.030507559 0.38428116 0.37837288
0.41700718 -0.35397482 -0.16897643 0.27365914

fc2.weight f4 [41, 100]
00000000: b221 45bd 2cbd 463e dea2 a1bb 3bbf 503e
00000010: 707a 883d ab76 75be c932 60bd 9f9c 233e
00000020: 3027 fdbc 357e ddbd f8a4 09bc 02a4 1bbe
00000030: 7b3a 47bd 53d5 233e bf3e dabd d029 fc3d
00000040: 4780 813d 3c82 62be 52e6 20bb 9e70 97bd
00000050: cf40 da3c 44f0 0b3e 55ee 58be 1fff 31be
00000060: 5092 e53d 9165 1dbd 2efe 923d 3e69 283e
00000070: 4ad5 6b3e e7d5 e23d 1821 3abe 762a 583c
00000080: 94e5 b73d d596 82bc b636 5abe 8459 133e
00000090: 87ea 1bbe 55d5 fc3c ddd7 be3c a4a4 d53c
000000a0: d2ef 21bc 2b2d 073d 2e56 2d3e 63da 0c3e
000000b0: 3228 80ba 75ff 3abd 2067 94b8 244e 31bc
000000c0: ad6c b53d 5798 173e 4a1e 10be 3425 03bb
000000d0: 2110 4d3d d581 b9bd 1bf2 843d 1d8a bd3b
000000e0: 158e 35be 8855 63bd d71d 263d 3433 053e
000000f0: 2bf1 433e 8630 8ebd bb0e 8c3d ed5f a63d
00000100: cc22 aabd b6e7 ecbc 65cf 4abe f74e dd3d
00000110: c111 ac3d 0e66 58be c2e1 2c3e 6e9a ae3c
00000120: 750d 443d 1122 8ebc e61c ccbd 7567 4e3e
00000130: 7a3e 67be a22b 60be b5fb abbc 20d2 a8bd
00000140: f8da 6abd 2202 37b6 4756 b13d 1ec0 293e
00000150: d2bd 8cbd fe00 c73c 2684 33be eac1 57bd
00000160: f834 ae3d 2b40 fcbd d1e5 733c f8fc 813e
00000170: 8828 033e c4be 9cbd c1a8 15be 22ef 0fbe
00000180: 87b7 2abe 8eaf c33d 59b4 1e3e fc5a 32be
00000190: b021 45bd 2cbd 463e d8a2 a1bb 3bbf 503e
000001a0: 717a 883d ab76 75be c932 60bd 9f9c 233e
000001b0: 3127 fdbc 357e ddbd faa4 09bc 01a4 1bbe
000001c0: 7b3a 47bd 53d5 233e c03e dabd d129 fc3d
000001d0: 4680 813d 3c82 62be 50e6 20bb 9e70 97bd
000001e0: cf40 da3c 44f0 0b3e 57ee 58be 1fff 31be
000001f0: 4f92 e53d 9165 1dbd 2ffe 923d 3e69 283e
00000200: 49d5 6b3e e7d5 e23d 1821 3abe 782a 583c
00000210: 94e5 b73d d596 82bc b536 5abe 8359 133e
00000220: 87ea 1bbe 56d5 fc3c ddd7 be3c a4a4 d53c
00000230: d4ef 21bc 2a2d 073d 2e56 2d3e 63da 0c3e
00000240: 5028 80ba 75ff 3abd 3e67 94b8 2a4e 31bc
00000250: ac6c b53d 5798 173e 4b1e 10be 3f25 03bb
00000260: 2110 4d3d d681 b9bd 1bf2 843d 1b8a bd3b
00000270: 148e 35be 8955 63bd d61d 263d 3433 053e
00000280: 2af1 433e 8630 8ebd bb0e 8c3d ec5f a63d
00000290: cc22 aabd b5e7 ecbc 65cf 4abe f84e dd3d
000002a0: c011 ac3d 0e66 58be c3e1 2c3e 6e9a ae3c
000002b0: 740d 443d 1222 8ebc e61c ccbd 7567 4e3e
000002c0: 7b3e 67be a22b 60be b2fb abbc 1fd2 a8bd
000002d0: f8da 6abd 2c14 37b6 4756 b13d 1dc0 293e
000002e0: d2bd 8cbd ff00 c73c 2684 33be eac1 57bd
000002f0: f934 ae3d 2940 fcbd d1e5 733c f8fc 813e
00000300: 8828 033e c4be 9cbd c1a8 15be 22ef 0fbe
00000310: 87b7 2abe 8faf c33d 5ab4 1e3e fc5a 32be
00000320: 51b0 93bc 908c 183f 8401 40be bbbe 9cbe
00000330: a94f 2cbe b796 7d3e 48f6 d4bd 3a6b acbe
00000340: cc26 3b3f b996 553e 5b9b 50be 269b 113e
00000350: f211 163f 9e0b a63e 420f 79bc 304c d2be
00000360: 36f0 a0be 5428 063e 5118 5c3d 24ad 043f
00000370: 34a8 9dbe 97bc 973d c083 633d 39ca 553e
00000380: 2213 e53e eed3 b0be 57cd c63c b6ca eabe
00000390: 969e 60be 7493 aebd 6406 e23e c141 063f
000003a0: 339d c9be 317e a9bf b9a1 d93d 06b4 c63d
000003b0: fb7e 013c cfc9 123f c1e5 98be 1772 07bf
000003c0: 6a60 963d bc10 febe a09f ff3e b8ec a5bd
000003d0: e5d2 4dbe 4076 c23e e492 e23d 0fa4 fb3e
000003e0: 48e0 c73d 7c82 b0bd df0a 943e c55c e43e
000003f0: 6cc4 44be 60aa a73e 5eca e03e 1754 6b3e
-0.048127837 0.19408101 -0.0049327454 0.20385449 0.06663978 -0.2397105 -0.054735932 0.15977715
-0.030902475 -0.10815088 -0.008401148 -0.15199283 -0.048639756 0.15999345 -0.10656499 0.123126626
0.06323295 -0.22119993 -0.0024551344 -0.07394527 0.026642231 0.13665873 -0.21184666 -0.17382477
0.112095475 -0.03842694 0.07177387 0.16446397 0.23030582 0.11075955 -0.18176687 0.013193717
0.089793354 -0.015941063 -0.21309933 0.14389616 -0.15226184 0.030863443 0.023296291 0.026079483
-0.009883838 0.03300206 0.16927406 0.13755183 -0.0009777604 -0.04565378 -7.0763985e-05 -0.010821853
0.08858619 0.14804207 -0.14074054 -0.0020011188 0.05006421 -0.090579666 0.064914905 0.0057842867
-0.17729981 -0.05550149 0.0405558 0.13007814 0.19134967 -0.06942849 0.06838747 0.08123765
-0.08307418 -0.028919082 -0.19805677 0.10806077 0.08401824 -0.21132681 0.16882995 0.021313872
0.047864396 -0.017350229 -0.099664494 0.20156653 -0.22582427 -0.21891645 -0.020994047 -0.08243203
-0.05733773 -2.7270366e-06 0.08659034 0.16577193 -0.06872143 0.024292465 -0.1753088 -0.052675165
0.08506197 -0.123169266 0.0148863355 0.25388312 0.1280843 -0.07653573 -0.14615156 -0.14056066
-0.16671573 0.09554969 0.15498485 -0.1741752 -0.04812783 0.19408101 -0.0049327426 0.20385449
0.06663979 -0.2397105 -0.054735932 0.15977715 -0.030902477 -0.10815088 -0.00840115 -0.15199281
-0.048639756 0.15999345 -0.106565 0.12312663 0.06323294 -0.22119993 -0.002455134 -0.07394527
0.026642231 0.13665873 -0.2118467 -0.17382477 0.11209547 -0.03842694 0.07177388 0.16446397
0.2303058 0.11075955 -0.18176687 0.013193719 0.089793354 -0.015941063 -0.21309932 0.14389615
-0.15226184 0.030863445 0.023296291 0.026079483 -0.00988384 0.033002056 0.16927406 0.13755183
-0.0009777639 -0.04565378 -7.07642e-05 -0.010821858 0.08858618 0.14804207 -0.14074056 -0.0020011214
0.05006421 -0.09057967 0.064914905 0.0057842857 -0.1772998 -0.055501495 0.040555798 0.13007814
0.19134966 -0.06942849 0.06838747 0.081237644 -0.08307418 -0.02891908 -0.19805677 0.10806078
0.08401823 -0.21132681 0.16882996 0.021313872 0.047864392 -0.01735023 -0.099664494 0.20156653
-0.22582428 -0.21891645 -0.020994041 -0.082432024 -0.05733773 -2.7280867e-06 0.08659034 0.16577192
-0.06872143 0.024292467 -0.1753088 -0.052675165 0.085061975 -0.12316925 0.0148863355 0.25388312
0.1280843 -0.07653573 -0.14615156 -0.14056066 -0.16671573 0.095549695 0.15498486 -0.1741752
-0.01802841 0.5958948 -0.18750578 -0.30614266 -0.16827263 0.24764524 -0.10398537 -0.33675557
0.73106074 0.20858277 -0.20371763 0.1421934 0.5862113 0.32430738 -0.015201392 -0.4107375
-0.31433266 0.13101321 0.053734127 0.5182669 -0.3079239 0.074090175 0.05554557 0.20877923
0.4474116 -0.3453669 0.024267836 -0.4585778 -0.21935496 -0.08524218 0.441455 0.5244408
-0.39377746 -1.3241636 0.10626549 0.097023055 0.00790381 0.57339185 -0.29862788 -0.5290846
0.07342608 -0.49622142 0.49926472 -0.08101791 -0.20099981 0.37980843 0.110631734 0.49148604
0.09759575 -0.08618638 0.28914544 0.44602028 -0.19215554 0.32747173 0.43904394 0.22981296

fc2.bias f4 [41]
00000000: 76f1 8ebe 76f1 8ebe b7bd 6e3e c2b3 e8be
00000010: 2512 07be 18a0 8fbe 4053 8dbe 8d2a bfbe
00000020: 7773 553e 15f2 07bf 155b d8be 822f 82be
00000030: 916e 103f fa85 f1be 5856 dabe a42a f23d
00000040: 6c7b 073d 5db7 5f3e 544d 6b3e 9d2f 8dbe
00000050: 5a50 d4bd 9efe 21be 4de3 9e3e 67ed 103e
00000060: e89a d0be 35dd a6be 62c4 373e a5b5 b73e
00000070: c88f e63d de9d e23c 9ee3 7dbe b268 eabe
00000080: b1f7 c33e 13f9 1a3e 03b0 cb3d 565f 8a3e
00000090: 6dce 1ebe 3018 0bbe 0f9c 11bf 26b4 9dbe
000000a0: c6b6 f6bd
-0.27918595 -0.27918595 0.23314558 -0.45449644 -0.13190515 -0.2805183 -0.27602577 -0.3733715
0.20844828 -0.5310376 -0.4225699 -0.2542687 0.5641871 -0.47172529 -0.42644 0.11824539
0.03307669 0.21847291 0.22978717 -0.2757539 -0.10366888 -0.15819785 0.31032792 0.14153062
-0.40743184 -0.32590643 0.17946008 0.3588077 0.11257893 0.027663168 -0.2479386 -0.45783
0.3827491 0.15134077 0.09945681 0.2702586 -0.15508433 -0.13583446 -0.5687875 -0.30801505
-0.1204658
